Code/models/MnistCnnDouglas.model (torch, 47943 bytes, 10 tensors)

weight f4 [16, 1, 5, 5]
0.034325346 0.2475533 0.2328154 -0.07230694 0.30215758 0.042749975 0.22004706 0.14699756
0.26848578 0.017626407 0.07073986 0.12825197 -0.019202393 -0.06880169 -0.068756275 -0.13957323
-0.3529452 -0.09945436 -0.19420196 0.09296846 -0.18449326 -0.108546026 -0.23296867 -0.18049642
0.056225263 -0.2175002 -0.21560507 -0.17534773 0.24805042 0.31133604 -0.19429162 -0.079452336
0.14052261 0.118448906 0.2832202 -0.07162505 0.04690195 -0.1554551 0.08712073 0.3636859
-0.075490326 -0.11615153 -0.1405216 0.11834898 0.36150184 -0.23030087 -5.886439e-05 -0.09068246
0.13626164 0.18317844 0.33224577 0.31450573 0.11741191 -0.17524298 -0.25913185 0.2673435
0.17259884 0.20674865 0.032926388 -0.1843298 0.1293294 0.30979434 0.21521348 -0.07901237
0.07145177 0.17825942 0.008360292 0.030970754 0.2507869 0.06480908 0.13361932 -0.1075965
-0.2504371 -0.105021425 -0.24537307 0.3240741 0.25811365 0.3411957 0.06378485 0.32013392
0.055569638 -0.0023222119 -0.04983187 -0.011827361 0.17894024 -0.23117249 -0.12394515 -0.18881994
0.1186305 -0.079890594 0.06570649 -0.07278154 -0.13386072 0.07527096 -0.19959368 -0.033394445
-0.18328062 0.110791504 -0.15274216 -0.1534793 -0.051847085 0.055990674 -0.115651585 -0.051684428
-0.5039092 0.031212112 -0.0330006 0.23013473 0.06820296 -0.22832924 0.55643725 0.518352
0.19246534 0.4359219 0.45783085 0.14499642 0.41666517 0.36197978 0.5967762 0.5220146
-0.07967617 -0.2559825 0.10653153 0.010507608 0.00839423 -0.22244479 -0.18662792 0.0033669162
-0.15402614 -0.019074831 -0.07614573 -0.19766882 -0.003709331 -0.1849818 -0.11577893 0.17032994
-0.026942542 -0.09938069 -0.22536175 -0.23490036 -0.073100545 -0.115864135 0.1269784 -0.14612225
-0.21591808 0.20032145 0.06009033 0.22836265 -0.12298177 -0.14373468 -0.08507979 0.041931458
0.24914284 0.32261854 0.12498805 -0.096774824 0.11522988 0.33194262 0.33093435 -0.010518713
0.03538787 0.38523996 0.46551216 0.20802143 -0.29112062 0.45933223 0.5866647 0.55678236
0.044037636 -0.19412817 0.31267166 0.44608673 0.2576554 -0.06370261 -0.31926978 -0.07189725
0.17978258 -0.023396622 0.020501146 -0.1314342 -0.07089568 -0.03947641 0.011343845 -0.16774434
-0.15247428 -0.065997906 0.34189454 0.19543947 -0.25392017 -0.027049735 0.3120671 0.3948699
-0.106589004 -0.22809897 -0.20591998 0.15208022 0.36982673 -0.16859595 0.06626642 -0.19214807
-0.102172285 0.24751604 0.16677637 0.09633184 -0.2581206 0.03751695 0.03587494 0.14425257
0.16694804 -0.13882431 -0.01192606 0.17644627 0.018033555 -0.038140442 -0.10573889 0.07152337
-0.037613884 0.36996588 -0.09157018 -0.11345556 0.1791109 0.34884858 0.2937909 -0.21778572
0.046393722 -0.050535366 0.1241923 0.24714892 0.122508205 -0.18770634 -0.15475714 -0.10946747
0.007948879 0.12001338 -0.4081505 -0.024280632 0.24430926 0.37376732 -0.21146217 -0.3191264
0.07909217 0.08833722 0.2864843 0.19903433 0.14600539 -0.14218703 0.03941742 0.096668206
0.26543355 0.37282953 0.37076065 0.05022005 0.17468464 0.4185722 0.6027864 0.055958718
00000000: bc98 0c3d 9d7e 7d3e 2967 6e3e a915 94bd
00000010: 66b4 9a3e 991a 2f3d 0454 613e 8786 163e
00000020: f876 893e 4165 903c 0fe0 903d 7c54 033e
00000030: 564e 9dbc e7e7 8cbd 17d0 8cbd 49ec 0ebe
00000040: 3cb5 b4be baae cbbd e1dc 46be 3f66 be3d
00000050: cdeb 3cbe 614d debd 578f 6ebe 0ed4 38be
00000060: 764c 663d 5fb8 5ebe 93c7 5cbe 5b8e 33be
00000070: ee00 7e3e 7067 9f3e 62f4 46be e8b7 a2bd
00000080: 29e5 0f3e 5795 f23d 3d02 913e 27b0 92bd
00000090: 421c 403d 9f2f 1fbe 5a6c b23d 0a35 ba3e
000000a0: ac9a 9abd dae0 edbd e5e4 0fbe f360 f23d
000000b0: c516 b93e fed3 6bbe 28e5 76b8 bab7 b9bd
000000c0: 2c88 0b3e 2193 3b3e 1e1c aa3e e506 a13e
000000d0: a875 f03d e572 33be eeac 84be 3fe1 883e
000000e0: c0bd 303e ebb5 533e d2dd 063d f3c0 3cbe
000000f0: ed6e 043e 5d9d 9e3e ec60 5c3e 3dd1 a1bd
00000100: 4e55 923d a389 363e 9bf9 083c 61b6 fd3c
00000110: 2467 803e 9fba 843d 81d3 083e 8e5b dcbd
00000120: 4b39 80be 7915 d7bd 1443 7bbe 0aed a53e
00000130: 7927 843e 34b1 ae3e a2a1 823d 98e8 a33e
00000140: fd9c 633d 4030 18bb 811c 4cbd 8cc7 41bc
00000150: 1c3c 373e 7bb8 6cbe f4d6 fdbd 045a 41be
00000160: 8cf4 f23d ae9d a3bd 2091 863d 7d0e 95bd
00000170: c912 09be a927 9a3d 4962 4cbe 9dc8 08bd
00000180: eaad 3bbe a8e6 e23d 7168 1cbe ad29 1dbe
00000190: 9c5d 54bd 7a56 653d bdda ecbd 0db3 53bd
000001a0: 3100 01bf 8bb0 ff3c a32b 07bd 70a8 6b3e
000001b0: fead 8b3d 24cf 69be ac72 0e3f b7b2 043f
000001c0: a215 453e 2831 df3e ce68 ea3e f179 143e
000001d0: 2355 d53e 6a55 b93e 53c6 183f c0a2 053f
000001e0: 432d a3bd 2310 83be 342d da3d 1a28 2c3c
000001f0: f487 093c 91c8 63be 641b 3fbe 7ba7 5c3b
00000200: 07b9 1dbe d242 9cbc 4bf2 9bbd b269 4abe
00000210: 3f18 73bb de6b 3dbe 811d edbd f96a 2e3e
00000220: 9bb6 dcbc 1a88 cbbd 3bc5 66be b889 70be
00000230: bdb5 95bd 2d4a edbd a006 023e 12a1 15be
00000240: a119 5dbe 1121 4d3e 4721 763d e6d7 693e
00000250: dedd fbbd 2f2f 13be 503e aebd 52c0 2b3d
00000260: 4d1f 7f3e 422e a53e bcf9 ff3d e131 c6bd
00000270: a5fd eb3d 62f4 a93e 3a70 a93e ae56 2cbc
00000280: dff2 103d 2c3e c53e 9c57 ee3e 9203 553e
00000290: c30d 95be 982d eb3e a82f 163f 4a89 0e3f
000002a0: cf60 343d 89c9 46be 8016 a03e 7b65 e43e
000002b0: 69eb 833e 8476 82bd 5477 a3be de3e 93bd
000002c0: ed18 383e 46aa bfbc 05f2 a73c b096 06be
000002d0: c131 91bd 04b2 21bd 89db 393c 2cc5 2bbe
000002e0: 3822 1cbe e929 87bd cd0c af3e 4921 483e
000002f0: d301 82be 6897 ddbc 42c7 9f3e 632c ca3e
00000300: 564b dabd c792 69be b0dc 52be ebba 1b3e
00000310: ee59 bd3e 6ba4 2cbe b0b6 873d 77c2 44be
00000320: b43f d1bd d874 7d3e 6dc7 2a3e a149 c53d
00000330: 6228 84be 60ab 193d 9af1 123d f2b6 133e
00000340: 6df4 2a3e f627 0ebe 8565 43bc 55ae 343e
00000350: 1bbb 933c 2739 1cbd a28d d8bd d87a 923d
00000360: 0411 1abd 2b6c bd3e 2689 bbbd 635b e8bd
00000370: d968 373e 489c b23e c36b 963e 3803 5fbe
00000380: 5807 3e3d 2cfe 4ebd 8858 fe3d 9b14 7d3e
00000390: 95e5 fa3d 1736 40be a878 1ebe 7b30 e0bd
000003a0: 043c 023c 93c9 f53d 1af9 d0be 2de8 c6bc
000003b0: 352c 7a3e 6e5e bf3e 8a89 58be 8964 a3be
000003c0: 13fb a13d 25ea b43d 12ae 923e a8cf 4b3e
000003d0: 7082 153e 7a99 11be 2974 213d fbf9 c53d
000003e0: e8e6 873e 83e3 be3e 57d4 bd3e 8ab3 4d3d
000003f0: 88e0 323e 184f d63e 3650 1a3f f834 653d

bias f4 [16]
0.00029619946 -0.12628572 0.119231544 0.0022624882 0.0045528635 0.35094845 -0.26967967 0.18109702
-0.16766007 -0.15121901 0.14689536 -0.016299829 -0.007867706 0.29277745 0.025746474 -0.09697238
00000000: 384b 9b39 0b51 01be ab2f f43d 4146 143b
00000010: 3030 953b 84af b33e 7413 8abe 7f71 393e
00000020: 15af 2bbe 28d9 1abe bd6b 163e 3887 85bc
00000030: 8de7 00bc ede6 953e 45ea d23c 7599 c6bd

weight f4 [10, 16, 3, 3]
0.060967553 0.11441465 0.040825993 0.18977818 0.12385424 0.10379529 0.009804436 -0.073329255
-0.03482468 0.01592786 0.027897663 0.066039816 0.073582456 -0.04089631 -0.08534759 -0.17442094
-0.061056305 -0.15387237 0.105706155 0.10786183 0.06964753 0.12042545 -0.016830098 0.049313184
0.008241432 -0.105497696 -0.21993835 -0.07146678 0.035922676 0.049641695 0.12569834 0.13243972
0.090047635 0.050992724 0.056101847 -0.07462549 0.45463884 0.41269946 0.32417342 -0.01747672
-0.23985717 -0.3179197 -0.17296079 -0.25453874 -0.28465608 -0.0052469373 -0.07213711 -0.06776512
-0.03359842 0.045436937 -0.050906 0.059632316 0.02642718 0.10366256 0.28919697 0.18434368
0.14097573 -0.0694132 -0.23289905 -0.32789183 -0.2129127 -0.21612528 -0.3163428 0.0659275
0.05579576 -0.042616665 -0.116841346 -0.1230757 -0.09039477 -0.026920443 0.09881974 -0.049462765
0.028781421 -0.093662724 -0.15022182 -0.087137915 -0.085271746 -0.15587741 -0.004201601 -0.011810136
-0.026232976 0.10350389 0.01199566 -0.048707068 -0.008302322 -0.16771917 -0.16449584 -0.05821631
-0.102722704 -0.07005573 -0.08694955 -0.008431635 -0.028409597 0.251807 0.12982531 0.11777906
-0.12233921 -0.13680468 -0.1791196 0.090979815 0.018265778 0.118911974 -0.058023352 -0.2028355
-0.29440716 0.09658 -0.0041001653 -0.013255395 0.024474317 0.052067615 0.12372168 0.12745671
0.0650332 0.12727618 0.037607603 -0.07431515 -0.06251019 -0.09209529 0.02628634 0.023759186
0.20774183 0.22382672 0.29301557 0.025629532 -0.05555475 -0.05501069 0.047930863 0.13949613
0.18776463 0.2333902 0.105474204 0.21659127 0.0042489953 -0.083374694 -0.20868526 0.051530138
0.04932889 0.13382171 -0.043272905 0.05881245 -0.040750083 -0.12509012 -0.20787284 -0.13160509
0.017655248 0.14390923 0.08221928 -0.06774207 -0.0344196 0.0368446 -0.0026057307 -0.07596494
0.015378206 -0.039331604 -0.04015042 -0.045879256 -0.013950197 -0.13121377 0.022002945 -0.052807726
-0.041927535 -0.084975235 0.009306712 0.014069173 0.1096945 -0.09759201 -0.09968338 -0.123180576
0.05083232 -0.06643582 -0.02140081 0.06751123 0.09359408 0.046944223 0.08654216 0.09845732
0.04613219 0.05132509 -0.0291164 -0.032825977 -0.12423877 0.06838338 0.023339022 0.006023962
-0.19037208 -0.25290707 0.2056468 0.24663785 0.04671955 -0.06935201 0.05805477 0.0814989
0.08220459 0.06137792 0.056162436 -0.01505278 0.060126126 -0.030214244 -0.12177873 -0.14390376
-0.08687307 0.030702068 0.01399787 -0.06445722 0.010540217 0.12641113 0.1345834 0.043114908
-0.08437948 -0.05383737 0.04749544 0.03206682 -0.06509519 0.037626456 0.09021683 0.11122899
-0.10484659 0.008071672 -0.04759662 -0.018709233 -0.012147134 -0.02201277 0.09066498 -0.0020223544
-0.025604928 -0.13912165 -0.11063755 0.0289904 0.09656326 0.018714918 0.014972209 0.07863054
0.17149957 0.03181285 0.09277551 0.0941566 0.10097615 0.02109272 0.12400024 0.06468641
-0.102546334 -0.077828005 -0.13182588 -0.053071637 -0.17034045 -0.015877035 0.08254892 -0.01649924
-0.12024489 0.22472502 0.16446249 0.15775485 0.0098547945 0.15024859 0.19129096 -0.09387709
00000000: 1db9 793d 3a52 ea3d 2839 273d 3655 423e
00000010: 4ba7 fd3d a092 d43d c9a2 203c a62d 96bd
00000020: 53a4 0ebd 257b 823c a489 e43c e23f 873d
00000030: 66b2 963d e482 27bd b8ca aebd 679b 32be
00000040: 2d16 7abd b890 1dbe 787c d83d aae6 dc3d
00000050: 5da3 8e3d 9ea1 f63d 46df 89bc 9ffc 493d
00000060: 1207 073c 2d0f d8bd 8537 61be 2d5d 92bd
00000070: a823 133d 1755 4b3d 11b7 003e 479e 073e
00000080: e56a b83d bfdd 503d 0dcb 653d 40d5 98bd
00000090: 6cc6 e83e 584d d33e 0ffa a53e 572b 8fbc
000000a0: 1e9d 75be 5fc6 a2be a21c 31be e752 82be
000000b0: 71be 91be 80ee abbb 9fbc 93bd 70c8 8abd
000000c0: 7f9e 09bd 151c 3a3d cf82 50bd 0441 743d
000000d0: d07d d83c 094d d43d a011 943e 97c4 3c3e
000000e0: f15b 103e 8228 8ebd 177d 6ebe 70e1 a7be
000000f0: c905 5abe f24f 5dbe aff7 a1be ff04 873d
00000100: 188a 643d d08e 2ebd 844a efbd 1d0f fcbd
00000110: e520 b9bd 4388 dcbc 0162 ca3d 7899 4abd
00000120: 04c7 eb3c 3ed2 bfbd c0d3 19be 5d75 b2bd
00000130: f4a2 aebd 549e 1fbe 95ad 89bb 4d7f 41bc
00000140: 8ae6 d6bc d9f9 d33d 7289 443c 1081 47bd
00000150: 7606 08bc 93be 2bbe 9971 28be 3a74 6ebd
00000160: 4860 d2bd 6179 8fbd 9b12 b2bd d724 0abc
00000170: 3ebb e8bc d9ec 803e edf0 043e 2636 f13d
00000180: fb8c fabd 8716 0cbe 216b 37be a053 ba3d
00000190: 1da2 953c 1f88 f33d e5a9 6dbd 1cb4 4fbe
000001a0: 89bc 96be bccb c53d ae5a 86bb 282d 59bc
000001b0: 5d7e c83c da44 553d cb61 fd3d 0384 023e
000001c0: 2030 853d b054 023e 6e0a 1a3d 8b32 98bd
000001d0: 5805 80bd 759c bcbd 7356 d73c a0a2 c23c
000001e0: 46ba 543e d532 653e 2306 963e 06f5 d13c
000001f0: 618d 63bd e452 61bd 2753 443d 13d8 0e3e
00000200: 5f45 403e d7fd 6e3e dc02 d83d 1aca 5d3e
00000210: 283b 8b3b 5ac0 aabd 97b1 55be 4411 533d
00000220: 170d 4a3d 8f08 093e ee3e 31bd 53e5 703d
00000230: 8fe9 26bd a017 00be 9edc 54be 7cc3 06be
00000240: bda1 903c f15c 133e 9562 a83d 5bbc 8abd
00000250: 91fb 0cbd 5dea 163d e8c4 2abb 8293 9bbd
00000260: dff4 7b3c 2d1a 21bd c474 24bd e3eb 3bbd
00000270: 5e8f 64bc e75c 06be 853f b43c ea4c 58bd
00000280: 35bc 2bbd 7f07 aebd 2e7b 183c 6382 663c
00000290: 83a7 e03d 52de c7bd cd26 ccbd 1946 fcbd
000002a0: 8d35 503d 810f 88bd c050 afbc 5443 8a3d
000002b0: 41ae bf3d 9648 403d 043d b13d fea3 c93d
000002c0: 1bf5 3c3d 423a 523d 8485 eebc 8874 06bd
000002d0: e570 febd 960c 8c3d 7a31 bf3c a864 c53b
000002e0: e6f0 42be 097d 81be 1395 523e a28e 7c3e
000002f0: 005d 3f3d 6d08 8ebd d7ca 6d3d e5e8 a63d
00000300: e15a a83d 6a67 7b3d 950a 663d ef9f 76bc
00000310: d046 763d dd83 f7bc 2067 f9bd 825b 13be
00000320: 82ea b1bd e782 fb3c 5257 653c 2602 84bd
00000330: e0b0 2c3c eb71 013e 3bd0 093e 4299 303d
00000340: 26cf acbd 9384 5cbd 948a 423d 7f58 033d
00000350: a150 85bd 331e 1a3d 9ac3 b83d 06cc e33d
00000360: cfb9 d6bd 0c3f 043c acf4 42bd 1b44 99bc
00000370: c604 47bc 2054 b4bc 90ae b93d 7a89 04bb
00000380: 6dc1 d1bc e875 0ebe f195 e2bd 467d ed3c
00000390: f5c2 c53d 0750 993c ff4d 753c 0c09 a13d
000003a0: 959d 2f3e 314e 023d 1601 be3d 2dd5 c03d
000003b0: 95cc ce3d a4ca ac3c d6f3 fd3d 4f7a 843d
000003c0: d003 d2bd 4a64 9fbd 5dfd 06be a561 59bd
000003d0: ba6d 2ebe 8e10 82bc 680f a93d 6a29 87bc
000003e0: f442 f6bd 511e 663e db68 283e 7d8a 213e
000003f0: 0176 213c c4da 193e c7e1 433e a242 c0bd

bias f4 [10]
-0.01351305 -0.05813005 -0.42625472 -0.058795907 0.043901894 -0.15964004 -0.102755055 -0.1671594
-0.19471781 0.04645484
00000000: d765 5dbc c619 6ebd 0f3e dabe fad3 70bd
00000010: 79d2 333d ae78 23be 3e71 d2bd d52b 2bbe
00000020: 1b64 47be 6e47 3e3d

weight f4 [32, 250]
0.07170864 -0.023001684 -0.049809165 0.0024621226 -0.01673107 -0.07304903 0.10629271 0.06778746
-0.1175586 -0.31771109 -0.084499024 0.11564972 0.030160649 -0.016035961 -0.014711676 0.05855073
0.15721358 0.14501159 0.08552862 -0.039208665 -0.08647593 -0.011058811 0.08056782 -0.25761947
-0.16678098 -0.025424723 -0.04581772 -0.04267305 0.028638298 -0.013420884 -0.028799467 -0.018405288
-0.02165873 -0.057183303 0.03679621 -0.12181508 -0.022985853 -0.13767892 -0.14700155 -0.10115449
-0.00357469 0.06208087 0.0101254955 -0.041386884 -0.0849337 -0.016338054 -0.048560068 -0.12774596
-0.020296793 0.07789454 -0.15037806 -0.23777018 0.16569188 0.27712986 -0.036733605 -0.018678987
0.1802952 -0.16187316 -0.047310162 -0.045215607 0.19731738 0.26219663 -0.26088285 0.25045684
0.11704624 -0.09255535 0.14877532 -0.22399917 0.025950253 -0.03816846 -0.17017049 -0.09240366
-0.15914647 -0.11506267 0.014440449 0.006938665 -0.0047118077 0.0070942 0.10510165 -0.04801436
-0.17582838 0.013242202 0.007055714 -0.037492197 -0.21714942 0.040494073 0.3224802 0.018636342
-0.05933764 0.0028507751 0.053767513 0.20268317 -0.15063281 0.07070458 0.029989261 -0.10438088
-0.08333509 -0.024935046 -0.04030643 -0.15973845 0.015409951 -0.01989264 0.0643151 0.017809713
-0.0075969095 -0.006961426 -0.021553908 -0.06509972 -0.008145759 -0.0365841 -0.021036537 0.04785495
-0.0053918622 -0.042610887 -0.070325844 0.0023215718 -0.020602865 0.021140397 -0.087914765 -0.03510715
-0.031877376 -0.04803084 -0.013691173 -0.046715204 0.0068380763 -0.062030066 -0.08640442 -0.02663323
-0.023800924 0.040623933 -0.066105984 0.09320675 0.088800766 0.073349565 0.06248615 0.08025923
-0.06594269 0.013362844 0.11385872 0.024676168 0.013777687 -0.07282216 0.091961026 0.03162454
-0.04790703 -0.008721981 0.11651579 0.065033816 0.013652886 0.046242755 -0.0040748524 -0.13667507
-0.051734 0.01173196 -0.057636466 -0.112624824 0.019325469 -0.07652162 -0.094691455 -0.25747117
-0.01518605 0.1653431 0.17000799 -0.23411393 -0.026121913 0.13851726 0.32424167 -0.02963899
-0.054018144 -0.07558887 -0.07195274 -0.011550771 -0.16417165 0.03857335 0.053697515 -0.025445871
-0.04037299 0.067440376 0.005126216 0.025151713 -0.048586838 -0.061929364 -0.023272883 0.15636495
0.10808706 -0.00043610018 0.15428206 -0.07609361 0.09602683 0.09447642 0.0012483699 0.10508301
-0.08258132 -0.059651855 -0.05808283 -0.09038112 0.009986551 -0.06012159 0.043974712 0.0009787345
-0.08257429 -0.105495594 -0.024634374 0.00820181 -0.1195648 -0.035906993 0.15814652 -0.08269577
0.035209414 -0.013474399 0.07571877 -0.08793305 0.06086659 0.116248704 0.06566794 -0.033282083
-0.12162749 0.104376234 0.07964172 -0.048659325 0.034552824 0.0025044365 -0.036798313 -0.023488777
-0.024059184 0.086719014 0.14553973 0.22162572 -0.022884768 -0.023927057 -0.047547046 -0.0065409956
-0.13034418 -0.13305593 -0.158958 -0.24330339 -0.09891561 -0.036418945 0.06795963 -0.07487524
-0.046704795 0.1294591 0.06569358 0.044299442 -0.04874913 0.048836883 0.116641946 -0.020645471
-0.04988551 -0.014266146 0.05949785 0.018502573 -0.023105776 -0.04584388 0.028466254 0.022034265
00000000: fbdb 923d 076e bcbc b204 4cbd 905b 213b
00000010: 990f 89bc bb9a 95bd feaf d93d 27d4 8a3d
00000020: 90c2 f0bd 07ab a2be d30d adbd c3d9 ec3d
00000030: 7713 f73c d95d 83bc 3e09 71bc e4d2 6f3d
00000040: 99fc 203e eb7d 143e a129 af3d 4499 20bd
00000050: 4b1a b1bd 0430 35bc be00 a53d b3e6 83be
00000060: a2c8 2abe 8247 d0bc 5dab 3bbd f0c9 2ebd
00000070: dd9a ea3c 44e3 5bbc dcec ebbc b0c6 96bc
00000080: a66d b1bc 0a39 6abd 9fb7 163d 2f7a f9bd
00000090: d44c bcbc b4fb 0cbe 9387 16be 162a cfbd
000000a0: 5945 6abb 8348 7e3d 68e5 253c 4b85 29bd
000000b0: b8f1 adbd 62d7 85bc ece6 46bd d6cf 02be
000000c0: 7645 a6bc 2c87 9f3d b5fc 19be 077a 73be
000000d0: 22ab 293e f7e3 8d3e fa75 16bd ad04 99bc
000000e0: 4e9f 383e 14c2 25be 4dc8 41bd 0034 39bd
000000f0: 910d 4a3e a33e 863e 7092 85be e13b 803e
00000100: f0b5 ef3d a98d bdbd 8f58 183e 0a60 65be
00000110: a095 d43c 8856 1cbd 2c41 2ebe 213e bdbd
00000120: 4bf7 22be faa5 ebbd a297 6c3c be5d e33b
00000130: 8265 9abb 7676 e83b 893f d73d b5aa 44bd
00000140: 5b0c 34be d2f5 583c 9e33 e73b 6b91 19bd
00000150: 6b5c 5ebe 1ddd 253d 201c a53e 3eab 983c
00000160: 060c 73bd 12d4 3a3b 533b 5c3d 2d8c 4f3e
00000170: 7d3f 1abe 90cd 903d 0aac f53c a5c5 d5bd
00000180: 96ab aabd 9544 ccbc 5b18 25bd 7a92 23be
00000190: 057a 7c3c e4f5 a2bc a3b7 833d ade5 913c
000001a0: 7fef f8bb ad1c e4bb d291 b0bc 0153 85bd
000001b0: ca75 05bc 36d9 15bd d154 acbc 8d03 443d
000001c0: 38ae b0bb c188 2ebd ff06 90bd 8325 183b
000001d0: 57c7 a8bc a02e ad3c a80c b4bd 84cc 0fbd
000001e0: da91 02bd fcbb 44bd f150 60bc 7158 3fbd
000001f0: f111 e03b 3d13 7ebd cdf4 b0bd ee2d dabc
00000200: 28fa c2bc 4865 263d 9362 87bd 2ee3 be3d
00000210: 2ddd b53d 4c38 963d 7af1 7f3d f45e a43d
00000220: f60c 87bd d4ef 5a3c c32e e93d ad25 ca3c
00000230: cfbb 613c c923 95bd 1056 bc3d bc88 013d
00000240: 293a 44bd a4e6 0ebc d59f ee3d 7330 853d
00000250: 5bb0 5f3c 0b69 3d3d 5786 85bb 8df4 0bbe
00000260: 08e7 53bd 6837 403c 3714 6cbd d8a7 e6bd
00000270: 7250 9e3c 5eb7 9cbd 98ed c1bd 43d3 83be
00000280: e9ce 78bc b44f 293e 9316 2e3e 90bb 6fbe
00000290: 9ffd d5bc 78d7 0d3e 0103 a63e 78cd f2bc
000002a0: 2142 5dbd 56ce 9abd f55b 93bd 723f 3dbc
000002b0: 9d1c 28be 17ff 1d3d edf1 5b3d dc73 d0bc
000002c0: 265e 25bd 2e1e 8a3d d1f9 a73b f70a ce3c
000002d0: fe02 47bd a5a9 7dbd c6a6 bebc 221e 203e
000002e0: c05c dd3d 60a4 e4b9 1efc 1d3e f7d6 9bbd
000002f0: b7a9 c43d da7c c13d 58a0 a33a c335 d73d
00000300: 6520 a9bd 8155 74bd 43e8 6dbd bd19 b9bd
00000310: a19e 233c 0e42 76bd d41e 343d e148 803a
00000320: b61c a9bd 130e d8bd 07ce c9bc e260 063c
00000330: 64de f4bd 3613 13bd 29f1 213e 665c a9bd
00000340: bf37 103d bac3 5cbc 7112 9b3d 3e16 b4bd
00000350: 3f4f 793d cd13 ee3d ea7c 863d cb52 08bd
00000360: d517 f9bd 35c3 d53d 331b a33d 004f 47bd
00000370: 4387 0d3d 7921 243b d4b9 16bd 896b c0bc
00000380: c417 c5bc bd99 b13d 5e08 153e daf1 623e
00000390: d678 bbbc ad02 c4bc b1c0 42bd d955 d6bb
000003a0: f278 05be d03f 08be e3c5 22be 8624 79be
000003b0: 4494 cabd 082c 15bd 6b2e 8b3d 3158 99bd
000003c0: 874d 3fbd ed90 043e 5b8a 863d 5573 353d
000003d0: 2bad 47bd 2f09 483d f9e1 ee3d b120 a9bc
000003e0: c054 4cbd 8ebc 69bc 04b4 733d b592 973c
000003f0: 5348 bdbc cbc6 3bbd 1032 e93c 3481 b43c

bias f4 [32]
0.04994156 -0.048191708 -0.058134105 -0.031741906 0.026535472 0.035184704 0.045657888 0.061026458
-0.027123392 0.062587544 0.01165797 0.033013646 -0.018968556 0.119448826 0.037481092 -0.009031406
0.024850657 0.01472352 0.00023788722 -0.034732413 -0.05208245 0.029180609 0.021847345 -0.008334855
0.031291597 0.04907674 0.11014445 -0.026439046 0.034894336 0.043795183 -0.05509665 0.00067047385
00000000: 858f 4c3d ab64 45bd 071e 6ebd cd03 02bd
00000010: eb60 d93c d61d 103d c403 3b3d e1f6 793d
00000020: e031 debc e62d 803d 1201 3f3c 5139 073d
00000030: f263 9bbc 96a1 f43d c685 193d 76f8 13bc
00000040: 9b93 cb3c eb3a 713c 5d71 7939 9343 0ebd
00000050: 6854 55bd 2c0c ef3c 34f9 b23c ea8e 08bc
00000060: 9e2b 003d b104 493d 6a93 e13d b396 d8bc
00000070: 5ded 0e3d 9462 333d 06ad 61bd bdc2 2f3a

weight f4 [16, 32]
0.026277479 0.16097881 0.0010888474 0.17890234 -0.093619436 0.33287078 0.14820053 0.2609152
-0.0073144664 -0.012989278 0.14721125 0.008841033 -0.32624024 -0.029441489 0.026298301 0.11979279
-0.3018159 -0.18556866 -0.15234539 -0.14793286 -0.17989294 0.00084914267 0.13320065 0.39141095
0.12876716 -0.20659831 0.024353003 0.09822778 0.044030774 -0.052066863 0.4946609 0.0038642993
-0.28424722 0.035532035 0.17338869 0.36104497 -0.1806189 0.06150202 -0.022321625 0.0934129
0.115970545 0.23962025 -0.079266354 0.11055923 0.00083143404 -0.10789202 0.04277936 0.17982315
0.22329246 -0.32109827 0.33122793 -0.2850298 0.15528455 -0.19147155 -0.33915174 -0.20705892
0.531571 -0.128206 -0.47083718 0.25031948 -0.16214317 0.36632594 -0.41463023 -0.15118976
-0.4053049 -0.1520292 -0.046588186 -0.026482552 0.14877081 -0.13712212 0.0075325975 -0.14663
0.06876039 0.45064637 0.13842978 -0.18442322 -0.2766895 0.6005484 0.34624314 -0.15679695
0.31454238 -0.35290954 -0.07703837 0.6370488 0.18604605 -0.24934678 0.24789636 -0.13256297
-0.33684108 -0.10417877 0.3099412 -0.2738111 -0.3518902 0.36520377 0.39586797 -0.0514337
-0.06020813 -0.12294665 -0.088954315 -0.04635405 -0.109220736 0.326439 0.15000132 -0.061803836
-0.0020148584 0.29644546 0.1470327 0.5286803 0.21695442 -0.0802881 -0.13483128 -0.040019877
-0.22988877 0.31965107 -0.15107962 -0.059948467 -0.19467938 0.5470573 -0.086801045 0.28163478
-0.14535116 0.53405255 0.1337006 -0.27279332 0.4686435 0.2197942 -0.08477102 0.15395144
0.5858541 -0.10829227 -0.05393444 -0.27166536 0.014401844 0.19148125 0.00066011364 0.07242556
0.06295847 -0.40512034 0.06253806 -0.18670624 -0.16810374 0.53853863 0.10876632 -0.15571086
0.4899561 0.43280718 0.0545782 0.19823009 0.08544002 0.124629855 0.1686901 0.18569177
-0.035491463 0.29606012 0.120756194 0.00719877 0.038735114 0.017602662 0.01855813 0.081881024
0.46490556 0.1348188 0.03992992 -0.36712366 0.19290812 -0.11370806 -0.037462346 0.03035688
-0.050993387 -0.22414501 -0.030054433 0.35586008 0.066659026 0.3460736 0.21053122 -0.382161
-0.09983018 0.43788758 -0.04268052 -0.17841642 0.2167557 -0.33483052 0.20283562 -0.07429342
0.055659473 0.5339837 -0.20048632 0.0009456875 0.18831223 -0.09839337 -0.024960613 -0.0068641226
-0.15081175 0.05350283 0.072820686 0.03917242 0.21010429 0.03332158 -0.19458331 0.07721985
0.043655027 -0.15606144 -0.16776471 -0.21225917 -0.0897951 -0.2646097 -0.03372887 -0.05565421
-0.11659698 -0.1558411 0.2991449 0.13994864 0.13525492 -0.2537881 0.39270788 -0.12339043
0.28499356 -0.2052415 -0.38368186 -0.077499695 -0.13731053 0.44730443 0.29615712 0.0018654586
0.46133932 0.13910961 0.049495716 0.6511687 -0.020525515 0.21308516 0.17317213 0.4393444
-0.105104566 -0.4109493 0.035875477 -0.2686622 0.11826123 -0.16456014 -0.15216902 0.12028775
0.42187467 -0.02070939 -0.1074883 -0.19284615 0.026310487 -0.324058 -0.13118622 0.26603198
0.3283285 -0.36554155 0.036498047 0.34502262 -0.2781706 -0.07079859 0.36798507 0.011102653
00000000: de43 d73c a1d7 243e a8b7 8e3a 2d32 373e
00000010: 8cbb bfbd 0a6e aa3e e1c1 173e ad96 853e
00000020: 31ae efbb fbd0 54bc 8cbe 163e fbd9 103c
00000030: f608 a7be 472f f1bc 896f d73c ec55 f53d
00000040: 9d87 9abe b605 3ebe 6e00 1cbe b67b 17be
00000050: db35 38be 0099 5e3a c065 083e 0467 c83e
00000060: 8adb 033e 828e 53be f37f c73c a52b c93d
00000070: 9d59 343d 1044 55bd 3244 fd3e 2f40 7d3b
00000080: da88 91be 0a8a 113d ce8c 313e e3da b83e
00000090: 29f4 38be 8be9 7b3d d7db b6bc 434f bf3d
000000a0: f781 ed3d 035f 753e 6656 a2bd e16c e23d
000000b0: 98f4 593a 7ef6 dcbd 6939 2f3d 8f23 383e
000000c0: c7a6 643e fe66 a4be b596 a93e 6def 91be
000000d0: ea02 1f3e 1e11 44be 4ca5 adbe 4107 54be
000000e0: 0915 083f 6f48 03be 9211 f1be e029 803e
000000f0: dc08 26be 138f bb3e 6a4a d4be 7dd1 1abe
00000100: 2084 cfbe 8bad 1bbe 41d3 3ebd f0f1 d8bc
00000110: 6057 183e be69 0cbe 02d4 f63b 2d26 16be
00000120: 3fd2 8c3d 1fbb e63e 89c0 0d3e 71d9 3cbe
00000130: 3faa 8dbe 8abd 193f c846 b13e 618f 20be
00000140: b30b a13e 8fb0 b4be 4bc6 9dbd a115 233f
00000150: db82 3e3e c354 7fbe 8bd8 7d3e 96be 07be
00000160: 6f76 acbe ae5b d5bd 9db0 9e3e f830 8cbe
00000170: f42a b4be fdfb ba3e 35af ca3e 25ac 52bd
00000180: cd9c 76bd 74cb fbbd ae2d b6bd bfdd 3dbd
00000190: 1faf dfbd 0323 a73e f299 193e 0526 7dbd
000001a0: b70b 04bb b3c7 973e bd8f 163e 9857 073f
000001b0: 4d29 5e3e 166e a4bd 3611 0abe e2eb 23bd
000001c0: f667 6bbe 4ea9 a33e 9eb4 1abe 868c 75bd
000001d0: 085a 47be f20b 0c3f bfc4 b1bd 6f32 903e
000001e0: efd6 14be abb7 083f cfe8 083e 91ab 8bbe
000001f0: 0af2 ef3e bb11 613e 6e9c adbd 72a5 1d3e
00000200: 89fa 153f 56c8 ddbd 5cea 5cbd b917 8bbe
00000210: b6f5 6b3c a913 443e 7a0b 2d3a da53 943d
00000220: 5ff0 803d ef6b cfbe f413 803d ec2f 3fbe
00000230: 6323 2cbe abdd 093f e0c0 de3d ab72 1fbe
00000240: 87db fa3e e798 dd3e 648d 5f3d d4fc 4a3e
00000250: 2dfb ae3d f03d ff3d 19bd 2c3e fc25 3e3e
00000260: 7f5f 11bd 3195 973e 064f f73d a9e3 eb3b
00000270: b6a8 1e3d 7533 903c 3807 983c 3db1 a73d
00000280: 1a08 ee3e f10d 0a3e 8e8d 233d a2f7 bbbe
00000290: b589 453e c5df e8bd 1e72 19bd feae f83c
000002a0: 71de 50bd 4586 65be b734 f6bc 4b33 b63e
000002b0: 8784 883d 8f30 b13e 7f95 573e 9baa c3be
000002c0: c473 ccbd cd32 e03e c5d1 2ebd cbb2 36be
000002d0: 35f5 5d3e e86e abbe 24b4 4f3e 2627 98bd
000002e0: 30fb 633d 28b3 083f 494c 4dbe 04e8 773a
000002f0: ecd4 403e 7782 c9bd 337a ccbc 6fec e0bb
00000300: 656e 1abe c925 5b3d 0323 953d 4273 203d
00000310: 9425 573e 367c 083d d940 47be 7125 9e3d
00000320: 9dcf 323d 92ce 1fbe 83ca 2bbe 785a 59be
00000330: 7ee6 b7bd ec7a 87be 4927 0abd abf5 63bd
00000340: 66ca eebd cf94 1fbe 8529 993e b24e 0f3e
00000350: 4480 0a3e 84f0 81be 0211 c93e 1fb4 fcbd
00000360: adea 913e d42a 52be f371 c4be 29b8 9ebd
00000370: 229b 0cbe 1605 e53e e8a1 973e 6782 f43a
00000380: ab34 ec3e c072 0e3e 05bc 4a3d feb2 263f
00000390: 2025 a8bc ff32 5a3e 0954 313e c0f1 e03e
000003a0: 1041 d7bd f267 d2be 2af2 123d 188e 89be
000003b0: f232 f23d 7482 28be 32d2 1bbe 6d59 f63d
000003c0: f5ff d73e bda6 a9bc d322 dcbd 7679 45be
000003d0: 1789 d73c eeea a5be ae55 06be 5835 883e
000003e0: ac1a a83e 4328 bbbe fa7e 153d cea6 b03e
000003f0: 606c 8ebe dafe 90bd 8a68 bc3e e7e7 353c

bias f4 [16]
0.11930087 0.07809165 0.28209403 -0.0024760747 -0.098575294 -0.09567191 0.17198138 0.095265284
0.06375441 -0.08153848 -0.1691836 0.19926086 -0.07856033 -0.14583714 -0.106982365 -0.076784015
00000000: 0454 f43d 84ee 9f3d a16e 903e a445 22bb
00000010: d8e1 c9bd a2ef c3bd e31b 303e 721a c33d
00000020: ac91 823d a6fd a6bd 773e 2dbe 0a0b 4c3e
00000030: 3de4 a0bd 5556 15be 9219 dbbd f040 9dbd

weight f4 [10, 16]
0.5781854 -0.084584534 -0.28915116 0.19097184 -0.47012988 -0.19745916 0.25529432 0.42036557
-0.10793216 -0.23740338 0.34651932 -0.14136952 0.6366171 0.273848 0.31134 -0.12344464
-0.1822748 -0.16763887 1.210943 -0.35934046 0.16290043 -0.15212457 -0.049377803 -0.37724754
0.14927948 -0.14379549 -0.21696049 0.058565997 -0.10035825 0.14616483 -0.35142407 -0.50185066
0.49070424 -0.30276218 -0.061354943 -0.07772832 -0.51308984 0.16262059 -0.19417107 -0.3162977
0.6616604 0.53740644 -0.2843041 0.3037435 0.23445317 -0.13968804 0.5843718 -0.3883681
0.21264039 -0.0073667914 0.48331618 -0.41088444 -0.18902262 -0.18884085 0.8549127 -0.0433315
-0.31040415 0.5884614 -0.20934805 0.23677719 -0.33155876 -0.042349182 -0.13957831 -0.12664935
-0.19779803 -0.24866605 -0.3554967 0.23869956 0.8900136 0.8053553 -0.20850998 -0.63358617
-0.13853635 -0.08719614 0.04933221 0.14757977 -0.04767761 -0.012528667 -0.27166227 -0.46669298
-0.123986 0.99741435 -0.3527354 0.20227493 -0.48667675 0.28619984 0.38049 -0.11066218
-0.3043911 0.018381556 -0.25555974 -0.027309284 -0.36389488 -0.16777341 -0.33678713 0.42354593
0.05532676 -0.23442678 -0.5972982 0.73107374 0.12752981 -0.470719 -0.15684238 -0.35366902
0.61147815 -0.28166553 -0.09695091 -0.3363507 0.02314104 0.3218236 -0.31551158 0.11453167
-0.06680948 0.34912467 -0.00783992 -0.32017013 0.19386205 -0.56019974 -0.29833975 0.76782835
-0.48419955 0.60582703 0.08061139 -0.18724094 -0.2426637 -0.106968254 0.67725646 -0.568867
-0.35587385 -0.198292 0.30477136 0.034454923 -0.29755166 -0.2804112 -0.10407803 -0.28970388
-0.41232216 -0.24006787 0.17989518 0.5403712 -0.024593456 0.28470817 0.50086355 0.705072
0.23742756 -0.40225592 -0.31234467 -0.731485 0.810402 0.27819502 0.031396735 0.5487466
-0.16380695 -0.4604428 -0.10823177 -0.042610485 0.022098072 -0.09078067 -0.16590546 0.5127649
00000000: f503 143f a83a adbd 9f0b 94be 1f8e 433e
00000010: ddb4 f0be bc32 4abe f0b5 823e 283a d73e
00000020: 890b ddbd df19 73be fb6a b13e 2cc3 10be
00000030: 57f9 223f ce35 8c3e f567 9f3e 8bd0 fcbd
00000040: 3fa6 3abe 86a9 2bbe 2e00 9b3f 79fb b7be
00000050: 5fcf 263e 8bc6 1bbe 6140 4abd 9726 c1be
00000060: b8dc 183e 203f 13be e42a 5ebe e6e2 6f3d
00000070: a088 cdbd 3cac 153e dbed b3be 4979 00bf
00000080: 963d fb3e a503 9bbe 524f 7bbd 0730 9fbd
00000090: db59 03bf 0386 263e c8d4 46be c6f1 a1be
000000a0: 9362 293f 7893 093f 4f90 91be 4584 9b3e
000000b0: 7e14 703e 620a 0fbe 6499 153f 2fd8 c6be
000000c0: 67be 593e 2065 f1bb 3875 f73e 725f d2be
000000d0: 258f 41be 7f5f 41be 8fdb 5a3f 5f7c 31bd
000000e0: 4bed 9ebe 68a5 163f 565f 56be b875 723e
000000f0: 12c2 a9be 5676 2dbd 9eed 0ebe 5eb0 01be
00000100: 918b 4abe 50a2 7ebe aa03 b6be a86d 743e
00000110: eed7 633f c42b 4e3f a483 55be b432 22bf
00000120: 79dc 0dbe e493 b2bd 9210 4a3d 271f 173e
00000130: 9949 43bd 0a45 4dbc 5117 8bbe 62f2 eebe
00000140: 5fec fdbd 8c56 7f3f bc99 b4be 2921 4f3e
00000150: b22d f9be c988 923e 96cf c23e daa2 e2bd
00000160: 26d9 9bbe eb94 963c bad8 82be b8b7 dfbc
00000170: 6e50 babe cbcc 2bbe 5d6f acbe 03db d83e
00000180: 509e 623d 930d 70be 89e8 18bf a627 3b3f
00000190: 2d97 023e 1502 f1be 4a9b 20be 1b14 b5be
000001a0: d589 1c3f 7736 90be 338e c6bd 2936 acbe
000001b0: 4792 bd3c 10c6 a43e bc8a a1be 958f ea3d
000001c0: 69d3 88bd 78c0 b23e 0273 00bc 57ed a3be
000001d0: c683 463e 4069 0fbf fdbf 98be 6690 443f
000001e0: 01e9 f7be 7b17 1b3f 9617 a53d 17bc 3fbe
000001f0: d57c 78be 2c12 dbbd ae60 2d3f 45a1 11bf
00000200: 1935 b6be 0f0d 4bbe fe0a 9c3e 9b20 0d3d
00000210: b158 98be 0f92 8fbe dd26 d5bd 1154 94be
00000220: e41b d3be 5ad4 75be 7136 383e c455 0a3f
00000230: 3778 c9bc 45c5 913e 9838 003f 997f 343f
00000240: 3620 733e 7df4 cdbe a4eb 9fbe 9a42 3bbf
00000250: 8176 4f3f 946f 8e3e dd99 003d a87a 0c3f
00000260: 02bd 27be 29bf ebbe 9ea8 ddbd 5588 2ebd
00000270: 0407 b53c 37eb b9bd 1fe3 29be 8f44 033f

bias f4 [10]
-0.17253537 0.37158006 -0.30778757 -0.11502161 -0.09903543 0.07158533 -0.0478492 0.30024496
-0.022595085 0.052393317
00000000: 1dad 30be be3f be3e 5596 9dbe 7390 ebbd
00000010: 16d3 cabd 549b 923d 86fd 43bd b5b9 993e
00000020: 5419 b9bc 609a 563d
