Code/models/MnistCnnCyril.model (torch, 47943 bytes, 10 tensors)

weight f4 [16, 1, 5, 5]
00000000: e2e1 453d a84d b93e 522c c53e fdb5 ea3e
00000010: 503c ea3e a4c8 94ba 6d94 08bc 52d2 113e
00000020: 5bac 8b3e 05dc 9e3d 1bef 423d e010 013d
00000030: d94d 32be 140a 4cbd ba8a 793c f36f 6abe
00000040: d51c f2bd 5f0e adbc bcb4 443c 1aa5 87be
00000050: 1084 0eba 3fc7 e5bd aa7f 7dbe 8104 bdbd
00000060: 3dee 90be db9d 523d f7c9 15be 5950 89bd
00000070: 87b7 923c b8c6 5cbd a4cb b93d 279c 2ebc
00000080: 4421 42be 7c7b a23d 61a2 32be 602e 19be
00000090: f81c 46be ba03 90bd 39f4 e73d 7c7a 13be
000000a0: 269f 023d 29d2 9cbd a054 7a3d 62ea 31be
000000b0: 0e15 29be 2df5 d6bc 989a e93d 96f9 353c
000000c0: 2bce 42be 771b 2fbe ef45 223e 3278 263e
000000d0: b19a 82bd 189f 6fbe db0d d23c 92b2 cdbd
000000e0: 0ad6 033e 457b 0abe 36c4 1abe 755e 0dbe
000000f0: bf02 5d3e 615d f43d bd3e 453e db34 d53e
00000100: 658b ce3e 0386 a03c 4c3a 713e 1a84 503e
00000110: 0b56 3b3e 54a1 783e 77ed 393d 883d 89bd
00000120: bc47 08be 4281 45be 3e28 c53d 1586 e9bd
00000130: dda3 af3c c7f3 8dbd 5d96 2d3e aebb 05be
00000140: 8f19 3fbe 7720 ac3d 55d7 343d e98c 2dbe
00000150: 1bf1 7ebd 67f4 09be 8db4 9cbc f0d5 4fbe
00000160: 1a3a 0dbe 00fd e43d 02bb 44be 8712 4fbe
00000170: 1372 e6bc 54b3 30bd 8102 d7bd ab15 36be
00000180: faee 04be 3abc 973d 1351 503e 8aed 9cbd
00000190: ec56 5ebc 1055 4cbe c0db 43be 076b 28be
000001a0: e5a8 47be 399c cbbd 2aad 0abe fdd1 54be
000001b0: 60ff 47be 575a 53be 583c 6bbe 3ac1 83be
000001c0: fbf4 efbd 348b c0bd 5268 853e 8447 043e
000001d0: e43b 1d3e 7ce7 103e db60 a83c 37e0 413e
000001e0: e803 973d 027a 243e 7be3 e53d 5c48 c33e
000001f0: b8e3 9c3e cedb 8a3e c29a 503e 76a6 0fbe
00000200: fc65 92be e12d aabe 8f10 c23d 964c 6c3e
00000210: 26be b3bd b269 823c f807 c9bd d056 c23e
00000220: 6372 d63e d904 183e 3e08 213d 5045 a4bd
00000230: 39d7 833e cd32 f53e 9edd 233e e868 d93e
00000240: 898c 923d 3dd4 41bc 208f 353e e194 fd3d
00000250: 7f1b 5e3e 1336 87bd ccfb f9bd b04e 00be
00000260: 274c d03c f6cb 463e 4125 1e3e 6552 4cbd
00000270: e6bb 25be 8fd7 2fbe 4b4a 22be 06a9 e7bd
00000280: 74de 4ebd 7d84 1cbe c835 7d3c 805d b73d
00000290: 2fc9 4c3e c703 be3c 8e06 4ebc a216 2dbe
000002a0: 363f 17be d11c bbbd 9d05 85bd 2e39 dabd
000002b0: 2261 183d 2417 01be 4c2f 26bc ada9 63be
000002c0: 425c 6bbe f26a 183d 725f c53e 9f1c b03e
000002d0: ea1a 9e3d 7159 fb3c ab16 173e 1dea d03e
000002e0: d2fb a53e e9d7 f0bd 630b 4b3d df83 083e
000002f0: 6c82 be3e 0d42 ba3d 847b 26bd 7887 87bd
00000300: 8864 553e 6ccf a33e 1525 b83d cc2a 23be
00000310: a7cc 643d 4b55 ef3d d2f7 9e3e 8ccc 3fbe
00000320: bb8d cebd 1872 8cbb 4ed5 413e c867 343e
00000330: b7a7 c7bd 2446 26bd 8607 afbd 26be e83d
00000340: 3fd8 213d 244a ffbd 4199 9d3d 79bc e7bd
00000350: 20d6 093e 886d a1bd 9014 15be ba0f 18be
00000360: 3fe8 dd3d b680 473c ba13 ad3d 837e 6dbe
00000370: d192 76bd 5a58 163c ab07 4f3b 1c66 8ebd
00000380: 01ed 00bd 2f13 14bd 9b98 843c 63dc 8d3d
00000390: f17d 0bbe 7f04 efbc 057b a23d 21b1 02be
000003a0: becc 1ebe 071f febc a861 d9bc 6067 d73d
000003b0: 5aeb 913e 8467 b23e 8897 b43e 6ad8 df3d
000003c0: 05c1 0b3e 0474 223e 0b91 c93d 9f06 993e
000003d0: d745 193c d44d f1bd b838 81bc acf7 d4bd
000003e0: cfa1 563e 6a1f 813e b30a 633e ff7d 8fba
000003f0: ed53 64be 026f 8a3d 6a68 353d 1762 e83d
0.04831112 0.3619206 0.38510376 0.4584197 0.4574914 -0.00113513 -0.008336169 0.14240387
0.27279934 0.07756809 0.04759131 0.031510234 -0.17412509 -0.0498143 0.015230829 -0.22894268
-0.118219055 -0.021125017 0.012005981 -0.2649315 -0.0005436549 -0.11219644 -0.24755731 -0.09229375
-0.2830676 0.051420074 -0.14627825 -0.06704778 0.017909778 -0.05390045 0.090720445 -0.010657347
-0.18958002 0.07933709 -0.17444755 -0.14959097 -0.19346988 -0.07031961 0.11325879 -0.14402193
0.031890057 -0.07657272 0.06111586 -0.17374566 -0.16511938 -0.026239956 0.114064395 0.011106869
-0.1902396 -0.17100321 0.1584699 0.16256788 -0.06377161 -0.23400533 0.025641372 -0.10043825
0.12874618 -0.13523586 -0.15113911 -0.13805564 0.21583079 0.11931873 0.19262214 0.41641888
0.40340725 0.019595152 0.23557395 0.20362893 0.18294542 0.24280292 0.04539248 -0.06701189
-0.13308614 -0.19287589 0.09626816 -0.11402527 0.02144044 -0.069312625 0.1695189 -0.13059875
-0.18662094 0.0840463 0.04415067 -0.16948284 -0.062241655 -0.13472138 -0.019129062 -0.20296454
-0.13791695 0.111810684 -0.19211963 -0.20221911 -0.028130567 -0.04313977 -0.104985245 -0.17781703
-0.12981787 0.07408948 0.20343427 -0.076624945 -0.0135705285 -0.19954324 -0.19126797 -0.16447078
-0.19498022 -0.099419065 -0.1354262 -0.20783229 -0.19531012 -0.2063993 -0.22972238 -0.25733358
-0.11716648 -0.09401551 0.26056153 0.12917906 0.15354878 0.14150804 0.020553997 0.18933187
0.07373792 0.16062167 0.11225029 0.38141143 0.30642486 0.27120823 0.20371535 -0.14028344
-0.28593433 -0.33238128 0.094758146 0.2307609 -0.08776502 0.01591954 -0.09815973 0.37956858
0.41884145 0.14845599 0.0393145 -0.08021033 0.2575014 0.4789032 0.16002509 0.4246285
0.07155711 -0.011830387 0.17730379 0.12381912 0.21690176 -0.06602111 -0.122062296 -0.12530017
0.025426937 0.19413742 0.15443899 -0.049883265 -0.16184959 -0.17172073 -0.15848653 -0.113115355
-0.050505117 -0.15284915 0.015454717 0.089533806 0.1999862 0.02319516 -0.012574805 -0.16903165
-0.14770207 -0.09136356 -0.06495211 -0.106554374 0.037202008 -0.12606484 -0.010143112 -0.22232695
-0.22984412 0.037211366 0.38549381 0.34396836 0.07719977 0.030682297 0.14754741 0.40803614
0.32418686 -0.117599316 0.049571406 0.13331555 0.3720888 0.090946294 -0.040645137 -0.066176355
0.20839131 0.31994188 0.08991448 -0.15934294 0.055859234 0.1168619 0.31048447 -0.18730372
-0.10085627 -0.004286062 0.18929026 0.17617714 -0.09748786 -0.040594235 -0.08546357 0.11364393
0.03951287 -0.12465313 0.076952465 -0.11315245 0.13460588 -0.078822196 -0.14558625 -0.14849749
0.10835313 0.012176683 0.08451028 -0.23192792 -0.06019861 0.009176338 0.0031590264 -0.069530696
-0.031476025 -0.036151107 0.01618605 0.06926801 -0.13622262 -0.029176949 0.0793362 -0.12762882
-0.1550779 -0.031020654 -0.026535824 0.10517764 0.28499871 0.348446 0.3527186 0.109299496
0.1364785 0.15864569 0.09842118 0.29887864 0.00935503 -0.11782423 -0.015774116 -0.10398802
0.20960163 0.2521928 0.2217205 -0.0010947584 -0.2229764 0.06759454 0.04428903 0.11346834

bias f4 [16]
00000000: baf7 b93e 859c 833c 569e a4bd 60ac e23e
00000010: ba9f 283e 9752 913c 544b 2a3d 1bb0 37be
00000020: 5ff2 853e 24c2 493b 6458 e7bc 7a0d 93be
00000030: b64e 45be f1c9 1a3c d9fb 64be 80ff 08be
0.36321813 0.016065845 -0.08038013 0.44272137 0.16467181 0.017739577 0.041575745 -0.17938273
0.26161477 0.0030785883 -0.02824039 -0.2872122 -0.19268307 0.009447561 -0.22361697 -0.13378716

weight f4 [10, 16, 3, 3]
00000000: e915 e63d f645 763d 675a 4fbd 5c03 863b
00000010: 2877 eb3a 4fcf 7e3c d4d4 163b 52d5 be3b
00000020: c013 7f3d 4775 98bd 2ba7 91bd 7add 1fbd
00000030: d6b1 333c ba6d 2e3d 992b 693c 4816 0d3d
00000040: b5b8 823c d5c5 3fbc cf8f 4a3d f173 36bd
00000050: 7a99 a9bd 46e0 40bd 8fc5 383d ca2e 38bd
00000060: 67d9 84bd c4d1 f6bc 9bed 1c3d aa6c cabc
00000070: a01a a83c a813 01bc d6fd d93c 9b53 9b3d
00000080: 0194 cc3c 7ac5 8f3d 07bb 6cbd 8dfc 33bd
00000090: 6e4a 79bd 61d9 96bd ba20 22bd cdc8 463c
000000a0: 3aca 4b3d a7b3 59bc 0e7b 573c 6fb8 a73c
000000b0: a880 873d cfb6 a53d 313a 9cbc 3d71 943d
000000c0: 84ba da3d d7a7 ac3d 6a99 4bbd 831f 9dbd
000000d0: b2b0 2fbd 8aea 9fbd acd3 553d d556 ff3c
000000e0: d32b 1dbd 27ce c3bc 56fc 493d 3e91 8f3d
000000f0: fe95 30bd 80f0 473d 1fcc 863d 7322 023e
00000100: 061a 9eb9 b4c8 42bd 25ff 89bd 322c babd
00000110: 6ab2 863d 674d 083c a7b6 b7bc 3c18 7dba
00000120: 5fa9 37bd b8e4 bcbc 60e5 293d aa9f 02bd
00000130: f306 963c e60d 61bd 8c8f 643c 7521 0e3c
00000140: 6ec0 993b ded5 b83d 71f5 143c 4934 c5bc
00000150: 65af bebc a82c a0bd 5d7e 6abd d1dc 863c
00000160: 60d2 9abd 0839 753d 3d29 423e 5126 9d3d
00000170: 4c1d 40bd 5479 493c ce53 443d 508d e8bd
00000180: ad41 46bd d963 27bc 82d6 d7bd c485 163c
00000190: 0f5f 713d 98a7 55bd 93b8 a8bc 0348 d8bc
000001a0: 94dc 70bd 8efa b8bd 4812 8bbb cac6 313d
000001b0: 7c8f 953d 30f4 01bc 26b4 a6bd 4ca8 a9bc
000001c0: 7028 9c3b 895c 9bbd 4606 4fbd 4b17 333c
000001d0: 6f0c 103d b224 c03d dea0 183c a9c1 2abd
000001e0: b65b 48bd 4ac7 4abd e02d 533c 697b 4dbd
000001f0: 289f 10bd 0a6e a2b9 abef 2a3d f69b 43bd
00000200: 047a 98bc c369 87bd 8d65 cdba 3811 a3bd
00000210: 8b6c e2bc a8c4 9fbc 818d 59bd be17 8abd
00000220: 8272 8abd 7410 fc3b 2453 f0bc 208f 12bc
00000230: a60a a83d 4057 443d 767b 983d 86dd 7bbd
00000240: 06c0 cfbd f71e 94bd 7614 913d 8a4c 52bd
00000250: 2227 39bc a7b9 90bd 38bc a43d e191 27bd
00000260: 8903 c9bd 9b2e 313d fb4a 5dbd c413 bdbc
00000270: 25c2 433d 6287 aabd 1784 7ebb 7789 133d
00000280: ba48 8a3d 98e6 913c 493d a1bd d812 7fbc
00000290: b5e7 88bc 1046 feba 9ece b9bc 2a50 e5bd
000002a0: 27e1 f43a 3109 1c3d 8606 62bd d072 3dbd
000002b0: 01d2 683d dacc 01be ee65 ac3c e76d 00bd
000002c0: 24c9 acbd bcf7 a6bd c79c d5bd 1139 48bc
000002d0: 1a5a 373e 8f76 283e c6f2 be39 6200 1a3e
000002e0: c846 bf3c 0747 90bd 25a6 24bd d5c5 18be
000002f0: 2894 1ebe 238e 80bd eb8c 9ebd b1f8 acbc
00000300: c588 90bc 3444 d8bd 7e63 73bc 1a20 a23c
00000310: bc17 563d 4a42 903d 70ae 48bd d72c 4ebd
00000320: c654 85bc e2d2 aebd a829 0cb9 d475 823c
00000330: 7378 a7bd fbe3 d0bc bafd 97bd 30f2 01be
00000340: a46c af3d 8652 163e e711 803d 19f9 823e
00000350: 85d6 7dbc e238 133e e121 433e 5dfa fbbd
00000360: a6b3 253d 1601 d23c 7c03 a7bc 0c77 d5bc
00000370: fa3b 22bb 823a 9d3c e0ce a03c 9f01 14bc
00000380: 019c 03bc 88c6 5bbd ba28 323d 084a 88bb
00000390: a88d fd3d d621 4bbd 23b6 25be 8d8a d2bc
000003a0: 780c a2bd ccd6 d9bd 8a87 7dbe 8a5b 053e
000003b0: 0e91 373e 292b a43c ca28 803e c930 933c
000003c0: 79f5 ef3d e2cf 793a d1cb 5ebe 71d2 d83d
000003d0: 0ea7 823e 957d a03d 6a31 2a3e 50eb 813e
000003e0: 8bb8 e7bd 0bce 163e 08e7 29bd fe03 1dbe
000003f0: d0d2 b3bd 69b6 4d3c 0546 b63d 7259 39bd
0.11234648 0.060125314 -0.050623324 0.004089756 0.0017964588 0.015552356 0.002301504 0.0058237696
0.062274694 -0.07444244 -0.07111963 -0.039029576 0.010967692 0.042585112 0.014231586 0.034445077
0.015957216 -0.011704882 0.049453553 -0.044544164 -0.082812265 -0.047088884 0.04511028 -0.044966497
-0.06486779 -0.03012932 0.038312536 -0.024710018 0.020520508 -0.007878222 0.026610296 0.07584306
0.024972918 0.070200875 -0.05779555 -0.043942023 -0.060861997 -0.073656805 -0.03958199 0.012132836
0.049753405 -0.013287461 0.013151897 0.020473687 0.06616336 0.080915086 -0.019070717 0.07248161
0.10680106 0.084304504 -0.049706854 -0.07672026 -0.04289312 -0.07808407 0.05220382 0.031169334
-0.038371872 -0.023902012 0.049312912 0.070101246 -0.043111794 0.048813343 0.06581902 0.12708454
-0.00030155497 -0.047554687 -0.06738118 -0.09090461 0.065769985 0.008319235 -0.022425963 -0.0009654795
-0.04483926 -0.02305828 0.041478515 -0.03189055 0.01831386 -0.054944895 0.01395024 0.008674969
0.004692129 0.09025167 0.009091721 -0.024072783 -0.023276994 -0.078210175 -0.057249416 0.016462715
-0.07559657 0.059868842 0.18961044 0.07673324 -0.04690294 0.012296993 0.047931485 -0.11355078
-0.048402477 -0.010216677 -0.10538961 0.009187166 0.058928546 -0.052161783 -0.020595824 -0.026401525
-0.05880411 -0.090321645 -0.0042441227 0.04340247 0.07302758 -0.007931754 -0.08139829 -0.020710133
0.0047655627 -0.07586009 -0.050543092 0.010930846 0.035168108 0.09381999 0.0093156975 -0.041688595
-0.048915587 -0.049506463 0.012889355 -0.05016652 -0.035308033 -0.00030981033 0.04173247 -0.047756158
-0.01861287 -0.06611969 -0.0015670523 -0.079622686 -0.027639648 -0.019502953 -0.053113464 -0.0674281
-0.06760122 0.007692391 -0.02933652 -0.0089452565 0.08205156 0.04793477 0.07445423 -0.061490558
-0.101440474 -0.072324686 0.07083981 -0.051342525 -0.011300834 -0.070666604 0.080437124 -0.040910605
-0.098151274 0.043257337 -0.054026585 -0.023080714 0.047792573 -0.083266035 -0.0038836056 0.03601977
0.06752153 0.017810151 -0.07873017 -0.015568458 -0.016712049 -0.0019399542 -0.02268153 -0.11196931
0.0018682823 0.038094703 -0.055182002 -0.04625207 0.0568409 -0.12675801 0.021044698 -0.03135481
-0.08436802 -0.0815272 -0.104302935 -0.012220637 0.17905465 0.16451477 0.00036420504 0.15039209
0.02334918 -0.070447974 -0.04019751 -0.14919217 -0.15486205 -0.062771104 -0.07741722 -0.021114679
-0.017643342 -0.10559884 -0.014855264 0.019790698 0.05226873 0.07043894 -0.04899448 -0.05033573
-0.016275775 -0.085363165 -0.00013366959 0.015925325 -0.08177271 -0.025499335 -0.074214414 -0.12690043
0.085656434 0.14679918 0.062534146 0.2558067 -0.01549304 0.14377168 0.19055893 -0.123036124
0.04045453 0.025635283 -0.020387404 -0.026057743 -0.0024754987 0.019192938 0.019629896 -0.00903359
-0.0080328 -0.05365613 0.04349587 -0.004159216 0.123805344 -0.049592815 -0.16182761 -0.025700832
-0.079125345 -0.106366724 -0.24758735 0.130232 0.17926428 0.020040112 0.2503112 0.017967599
0.11716742 0.0009529573 -0.21757437 0.105870135 0.25518078 0.07836453 0.16620412 0.25374842
-0.11314496 0.14727037 -0.041480094 -0.15333554 -0.08780444 0.012555697 0.08900074 -0.045251317

bias f4 [10]
00000000: 64bf 04bd 969e bdbd 0631 43be 6510 6abe
00000010: 9e90 57bd 25e2 59bd 67d4 29bd cb24 7bbe
00000020: 4600 bf3d 900d f93c
-0.032409087 -0.092587635 -0.1906167 -0.22857817 -0.052628152 -0.053194184 -0.04146233 -0.24525754
0.09326224 0.030401975

weight f4 [32, 250]
00000000: 1cca 5ebd 8d61 04bd 602b d1bc b71a 333d
00000010: 36a7 cabc 831d 233d 5a07 7bbd 72bb e13c
00000020: 1be7 49bd 391f 8b3d e1e9 caba a112 7dbd
00000030: d7e4 77bd 8c69 333d d5ef dbbb 628f 633d
00000040: d641 483d da77 5bbd 0497 a7bc 5a88 263d
00000050: 5da5 84bd 258c 173d 6f47 983b fa93 913a
00000060: 3b34 b5bc 7e98 a3bd 070c 36bd 812e 89bd
00000070: bf68 b23c 3e4c 693c 0325 713c cbeb 19bd
00000080: ea39 053d f0ce 59bb ba84 adbd dddb d9bd
00000090: fa81 fd3c d1e2 0e3e 7e69 88bd 5a87 053d
000000a0: 3004 51bc 7c73 f8bc 3703 d23c 9386 1bbd
000000b0: 6b5f 96bc 8207 0bbc 9b2a 763d d099 8d3d
000000c0: d220 5e3d e5fd 3a3c 209c 62bd ba2a ad3d
000000d0: a230 f53d bed5 043d 608f 8cbd b677 ce3c
000000e0: 8db2 d53d 48a4 a73e 8661 243e 19e5 3c3d
000000f0: 68f6 9e3c 0762 c9bd 5215 03bd 9d61 713c
00000100: 2b66 78bd 21bb fcbd 60a7 74bc 5cc5 d93c
00000110: ceda e2bd a01a 7fbe 2ace d63d 91d0 b0bd
00000120: 1c16 dfbd e773 37be ddad c7bd 1741 1fbd
00000130: 24c3 5e3d 9e9d c33d da81 f53d bb63 8abd
00000140: 458d 66bd 4143 dabd 59f4 cc3d cd42 563e
00000150: 44df 033e 68db dabd c81c 0dbd 646e c2bd
00000160: 163e 32bd 27cf b5bb 27aa 89bc 1669 4fbd
00000170: 8100 83bd 6546 5b3c ae4c 70bd ec05 c93d
00000180: 5097 883d 3c54 e9bc 1ff4 abbd 255f 2a3d
00000190: fce4 8bbc 6448 44bd 0af9 193d 9a5f 82bc
000001a0: 7270 dab8 9acf 203d 7571 7f3d 8478 02bd
000001b0: 38d8 183d f3a2 ae3c a306 d1bc 561a 4f3d
000001c0: 7926 73bc 10a3 d83c b694 503d c0a6 633d
000001d0: 7844 563d 7c02 753d 623c 553d 381d 633d
000001e0: 981e babc 40ec 7c3b 8adf 213d c1c0 9b3c
000001f0: 009f 44bb d7f0 1c3d 82fb a8bb 64d0 9a3d
00000200: 098f 55bc 4acc 1fbc b45f 8b3d 653e 5e3d
00000210: f0bb 083e 02db 2dbc 8635 f93b ba01 83bc
00000220: 29a4 f1bc 16e3 bd3d e30c cc3d 09b5 b33c
00000230: 941a 37bd 6a1a 403e 078d 793d 33c0 00be
00000240: 0660 01be ca11 e4bc ae17 63bc ecde 8dbd
00000250: c81a b0bd a653 07bd 50e4 bc3c de8d 793c
00000260: c4c9 693d 7f63 7abd 5bb4 a3bd f2f9 9cbc
00000270: 3b18 913d d0df af39 d680 5cbe 5bbe 5c3d
00000280: 2003 e8bd f972 a53d 976e c23d 6250 9fbd
00000290: 211f 7b3d 3e96 94bd 9e6c b0bd 3005 d5bc
000002a0: 88ce 1a3e b77d 3fbd 50ca 9a3d a0a4 fe3d
000002b0: 8f64 ed3d 9086 d13b f148 a63c bd8f db3c
000002c0: 1526 763c 5113 333e 37f0 3d3e a2f2 093d
000002d0: 2861 993d 710c 97bd 3a0e 4b3e a2f8 143e
000002e0: 2e3d 013d 8abf 17be 1efd 30be dfed 533b
000002f0: 5dfa 05be 7182 1ebd 7a84 9dbc 1aaa 08be
00000300: 1442 4ebe 110a c7bd 9f81 873c a7b3 5f3e
00000310: bf28 653e f273 453e 72da d73d 7112 dabc
00000320: fae7 213c b465 453d b6bc e9bc 121d c7bd
00000330: 3ac5 b3bd 1780 123d 43cf ce3d afc4 093e
00000340: 6637 63ba 1f90 333a 42dd 3d3d e858 c0bd
00000350: 2867 bcba dbd5 053d 410b bb3d 4f15 bdbc
00000360: e0b2 f73d c06d 0e3d f980 06be 372b 2abe
00000370: c91a 87bc 0d14 5fbd 3a39 38bd bead 82bd
00000380: 8df7 8ebd 4af4 63bd d6ad dcbb 83b1 8fbc
00000390: 4c61 483c f87b 2bbc 2e38 83bc b6b6 3b3d
000003a0: b394 6f3d 74e5 c73c b679 8c3c 669a 323c
000003b0: 3abf 69bd e6da 61bd 62c8 5b3c cb06 873c
000003c0: c956 733d bb48 6a3b 428c b23c 3c2c 0b3d
000003d0: 52cd 31bd 1ca4 023d 4d7b 7e3d 166f f7bc
000003e0: 43ac 313d 51a2 a83c 3327 2d3d b12d a6bc
000003f0: 0104 1d3d 1381 773d 7d7a 343d 7bc8 79bd
-0.054391965 -0.032319594 -0.025533378 0.04372665 -0.024737936 0.039823066 -0.061286308 0.027555201
-0.049292665 0.067930646 -0.0015481078 -0.061785344 -0.060520973 0.04380183 -0.00671194 0.055556662
0.04889091 -0.053581096 -0.020457752 0.04065738 -0.06476853 0.036998887 0.0046471874 0.0011106723
-0.022119632 -0.0798807 -0.044445064 -0.06698323 0.021778462 0.014239369 0.014718297 -0.037578385
0.032525934 -0.0033234917 -0.08472581 -0.10637639 0.030945767 0.13953711 -0.06660746 0.032599784
-0.012757346 -0.030328505 0.025636299 -0.037970137 -0.018356046 -0.008485677 0.060099225 0.06914103
0.05423052 0.011413072 -0.055324674 0.08455415 0.119721666 0.032430403 -0.06863284 0.025203567
0.104344465 0.32742524 0.16052827 0.046116922 0.019404605 -0.0983315 -0.032002755 0.0147327455
-0.06064431 -0.123403795 -0.014932483 0.026583366 -0.1107689 -0.249125 0.104885414 -0.08633531
-0.10892889 -0.17915307 -0.09749959 -0.038880434 0.05438532 0.095515475 0.11987658 -0.06757303
-0.05628707 -0.10657359 0.10007543 0.2092392 0.12878138 -0.1068638 -0.034451276 -0.094937116
-0.04351624 -0.005548376 -0.016804768 -0.050637327 -0.063965805 0.013383483 -0.058666877 0.09815583
0.066694856 -0.028482549 -0.08396172 0.041594643 -0.017076962 -0.0479206 0.037591018 -0.015914727
-0.000104159946 0.039260484 0.06236406 -0.031853214 0.037315577 0.021317935 -0.02551586 0.050562225
-0.014840716 0.026444942 0.05092307 0.055578947 0.05231139 0.059816822 0.05205954 0.055447787
-0.022719666 0.0038592964 0.039519824 0.01901281 -0.0030001998 0.03831562 -0.005156935 0.075592786
-0.0130345905 -0.009753296 0.06805363 0.054258723 0.13352942 -0.010611298 0.0076052574 -0.015992034
-0.029497223 0.09271829 0.099633954 0.02193691 -0.04470308 0.18760076 0.06092551 -0.12573318
-0.12634286 -0.027840514 -0.013860626 -0.069272846 -0.08598858 -0.033038758 0.023058087 0.015231578
0.057077184 -0.061130043 -0.079933845 -0.019162152 0.070847 0.00033545354 -0.21533522 0.053892475
-0.11328721 0.0807857 0.094937496 -0.07779004 0.061308984 -0.07255219 -0.08614467 -0.02600345
0.15117848 -0.04675075 0.07558119 0.124337435 0.11591446 0.006394215 0.020298453 0.026801938
0.015023728 0.17487837 0.18548666 0.03367866 0.07489234 -0.0737542 0.19829646 0.14547971
0.031552486 -0.1481916 -0.17284057 0.0032337827 -0.13083787 -0.038698617 -0.019228209 -0.13346139
-0.20142394 -0.09718717 0.0165413 0.21845876 0.22378825 0.19282511 0.10539712 -0.026620122
0.009881968 0.048192695 -0.028532367 -0.097223416 -0.08777852 0.035766687 0.10098126 0.13453935
-0.0008667618 0.0006849784 0.046353586 -0.093919575 -0.0014374005 0.03267465 0.09133006 -0.02308145
0.120946646 0.034772635 -0.13135137 -0.16618048 -0.016492264 -0.05446248 -0.04497645 -0.06380795
-0.0698081 -0.055652894 -0.00673459 -0.017540699 0.012230229 -0.010466568 -0.016018 0.045828544
0.05849142 0.024401404 0.01714788 0.010901069 -0.057067133 -0.0551404 0.013414474 0.016482731
0.059408937 0.0035748917 0.021795396 0.033977732 -0.0434087 0.03189479 0.062129308 -0.030204337
0.043377172 0.020585211 0.04227371 -0.02028546 0.038333897 0.06042583 0.044062126 -0.06098221

bias f4 [32]
00000000: 293a 8c3d dccb 11bc ecec 173c db0e d53d
00000010: 1d40 803c 20af 48bd e91a 08bc 1011 223d
00000020: 6a7d 3a3d e6d9 ef3d 97cb 0dbc 5075 523d
00000030: bcaf 0d3d 0137 19bd c682 743d 9723 13bd
00000040: ee5a 19bc 4f18 a7bc f222 37bc b340 5e3d
00000050: 578a b73c 6467 95bc e8ab a2bc 11b4 d23d
00000060: 89bf ed3c 5ef2 5d3d 1aad 303d 5be6 cc3c
00000070: aa51 363d ae3e c1bc ad34 183d 305f 2e3d
0.06847031 -0.0088987015 0.009272795 0.10403224 0.015655572 -0.048995137 -0.008307197 0.039567053
0.04552976 0.11711483 -0.008654497 0.05138141 0.03459142 -0.03740597 0.059695028 -0.035922613
-0.009360058 -0.020397333 -0.011177765 0.05426092 0.022404833 -0.018237777 -0.019857362 0.10288251
0.029021995 0.054186217 0.043133833 0.025012186 0.044511475 -0.023589458 0.03715961 0.042571247

weight f4 [16, 32]
00000000: 0425 5e3d 6272 393e 665f 103d e74f 063e
00000010: 1daf f6bd 1e84 54bd 29de da3b 8d91 2a3e
00000020: 5192 463e 881c 123d 4da5 3b3e 2d07 7dbe
00000030: 7161 d43e 38a3 a8bb 1e93 ed3c 0d5e c5bd
00000040: 2de3 063d c6b8 9c3d a9a0 81be f44e 953d
00000050: d1e9 783e 028a 31be bab2 013e 47b4 863e
00000060: 15d4 ef3d 7afb 35be db09 623d b0c0 0e3f
00000070: 8ede ee3c 7216 debd 3319 11be 93fe 1a3b
00000080: 84c9 e63d c954 553e 15a0 20be 3af0 3fbd
00000090: bd13 84bd 5831 52bd 45b7 1c3e 5d5c 87bd
000000a0: d1cf 99bd 41b0 08be 3496 1ebe bd39 953d
000000b0: 61a0 33be 7706 06be b98a c8bc 2a13 e5bd
000000c0: 793c bdbd 7349 a13e 3fb1 82bc 34be 1b3d
000000d0: eca4 d23d 2114 afbd 07af 153e 4396 0cbe
000000e0: d047 15be af32 33be c38a 893e d3f4 f3bd
000000f0: 830b dbbd 767b 93bd b21c 813d e7da 503d
00000100: c5d5 05be c463 eabe 8ad5 d43e 591f 39be
00000110: dc11 283f 7b21 003f ba5d eebd b38b b83c
00000120: f446 43bd f652 0c3e fb36 493e 5eb8 64be
00000130: b2ce 9b3e 8ece 57be d321 013f 87a1 393e
00000140: 0213 4ebe 0c14 58bd 3c22 323f d4bd 0cbe
00000150: f59c 64be 22ed 233e 43c6 5c3e e219 45be
00000160: 00be 2ebe 81b7 6fbd 50c4 a4b9 d466 313e
00000170: 25de ca3b 7580 883e 338d 213e d0e8 273e
00000180: 7f0f 11be efc8 9ebb b178 a5bd 9f94 b7bd
00000190: cb4c 0e3e 8084 2c3e b9de 18be bff1 0bbe
000001a0: 5713 c4ba 622b 1cbe 6ec8 05be d855 853d
000001b0: 17e0 e0bd 313d 14be ac7b a03d a917 7a3d
000001c0: 09ce 123e df0d 0a3d 6595 afbd f3a7 ea3d
000001d0: 7695 8b3c 3380 ccbd 4c04 26be d351 233e
000001e0: b785 fe3c bd7d f6bd 9abe 00be 7888 65bd
000001f0: f239 853d 72ee a5bd a6f1 c3bc 08fa 05be
00000200: 988d 8ebd 4152 8bbd 1e54 333d b13a 1f3d
00000210: d6f5 fb3d bef3 88bc 3c93 503d 00c7 e63c
00000220: f645 f6bd 229e ca3d f1b4 e1bd 2ae4 b3bd
00000230: 385a d23c 7dbd 2c3e 44d4 b13c a87e d3bd
00000240: eddc 163d b4b8 d63d 3638 713d f273 f1bb
00000250: e0c2 f9bc c49a 08be fdd5 403e 0bd1 773d
00000260: c845 1c39 1957 0ebd a2ca 36be 16de 9bbd
00000270: 31ac c6bd 8586 063d 1f1a 2ebe 867c a4bd
00000280: 53ec dc3e 8814 2f3e 034b cdbe 06cc 20bf
00000290: 84c2 e3bd 2a9e ad3d 6c04 dcbc 21b5 413e
000002a0: 54e5 283e 598a 0fbf 7abb 393e 0b4f 4fbd
000002b0: d9a8 643e 0407 e4be e5ea 5dbd cebc ef3d
000002c0: 29a1 17be 7fb1 563e b727 0ebe 2558 e03d
000002d0: 698e d33d 8d8c bf3d b73b 883e 3238 d8bd
000002e0: 7d03 5a3d 5c7f 4fbe b9ef f53e 7999 4c3e
000002f0: 294f cbbd 8b50 9f3d 8e7e 4bbe f335 1fbe
00000300: d402 893d d175 9c3d 9fa0 843e 75c5 d43e
00000310: 4c5f 073d 1ca7 96bd f568 bdbc e67a 8dbe
00000320: 08f7 bdbd 7d5a a1be 03f7 0abe 0eb6 e7bd
00000330: 036a 52bd 4251 8e3d d901 2dbc ced7 bc3d
00000340: 9aff 90bd a904 6b3e 8291 50be c5b9 00be
00000350: fe89 ef3e aadf ac3b 43a9 83be 29db 803e
00000360: 7fec f2bb 02c2 0dbc 8a61 8abe 0381 b33e
00000370: a70f a93d 9298 0cbe 2377 d13e fc57 d8bb
00000380: 7b6a 703e 4af1 973e 70ce b0bd 73a8 103e
00000390: a9a3 173e d5dd 2cbd 637e c5bd e0b7 2f3e
000003a0: 6d9f 61be 5b17 a93d 4b8f df3c 7000 003f
000003b0: 32bb 943c c9fe 6e3e f460 96be 7b18 253e
000003c0: cc50 bb3c cbf6 333e 1c4a 833d 4e48 113e
000003d0: 824a e23c b260 03be 0e79 02be ef65 1dbe
000003e0: 2267 1bbc 5223 2dbe 8e6e b53d 3986 56bd
000003f0: 3444 31be 4f19 f2bc 96c2 37be 47a1 203e
0.05423452 0.1811004 0.03524723 0.13116418 -0.12045119 -0.05188381 0.0066793156 0.16657086
0.19391753 0.03567174 0.18324776 -0.24709769 0.41480592 -0.0051464103 0.029000815 -0.096370794
0.032931495 0.0765243 -0.25317886 0.0729045 0.24307944 -0.17337802 0.12665835 0.26309416
0.11710373 -0.17771712 0.05518518 0.5576277 0.029158857 -0.10844125 -0.14169769 0.0023650273
0.11268905 0.20833124 -0.15686066 -0.046859957 -0.06449077 -0.05131659 0.15304287 -0.06609414
-0.07510341 -0.13348486 -0.15486985 0.07286403 -0.17541648 -0.13088404 -0.02448021 -0.11185296
-0.0924005 0.3150135 -0.015953658 0.03802319 0.102853626 -0.08548761 0.14617549 -0.13729195
-0.14578176 -0.17499803 0.2686368 -0.11911931 -0.10695555 -0.07201283 0.06304301 0.05099001
-0.13069828 -0.4577924 0.41569167 -0.18078364 0.6565225 0.5005109 -0.11638971 0.022527551
-0.047675088 0.13703522 0.1964988 -0.22335956 0.30431134 -0.21074888 0.50442237 0.18128024
-0.20124438 -0.052753493 0.6958349 -0.13744289 -0.223255 0.16008428 0.21560006 -0.19248155
-0.17064667 -0.058524612 -0.00031426782 0.17324382 0.0061910325 0.26660505 0.1577652 0.16397405
-0.14166068 -0.0048457305 -0.08079661 -0.08963894 0.13896482 0.1684742 -0.14928712 -0.13666438
-0.0014959377 -0.15250924 -0.13064739 0.06510514 -0.10980242 -0.14476468 0.078360885 0.06105772
0.14336409 0.033704635 -0.085734166 0.11457815 0.017039042 -0.099853896 -0.16212577 0.15949182
0.03106962 -0.120357014 -0.12572709 -0.05603835 0.06505193 -0.081021205 -0.023918938 -0.1308366
-0.069606006 -0.06802798 0.043781392 0.03887433 0.12302749 -0.016717788 0.050921664 0.028171062
-0.12025063 0.09893443 -0.1102084 -0.08783753 0.025677785 0.16869159 0.021707661 -0.10326892
0.036831785 0.10484448 0.058891498 -0.007368558 -0.030488431 -0.13340288 0.1883163 0.060502093
0.00014903315 -0.03475103 -0.17850736 -0.07610719 -0.09700812 0.03284313 -0.17002152 -0.080315635
0.4314905 0.17097676 -0.40096292 -0.62811315 -0.11121085 0.08477433 -0.026857577 0.18916751
0.16493732 -0.56070477 0.18137923 -0.05061249 0.22330035 -0.44536602 -0.05417909 0.117059335
-0.14807571 0.20966147 -0.13882338 0.10954312 0.10329897 0.0935298 0.2660806 -0.105575934
0.053225983 -0.20263427 0.48034456 0.1998042 -0.09927208 0.07779034 -0.19872496 -0.15547924
0.066899925 0.07639659 0.25903794 0.41556898 0.033049867 -0.07356092 -0.023121336 -0.27632827
-0.09275633 -0.3151435 -0.1357079 -0.11314021 -0.051370632 0.069490924 -0.010559523 0.09220849
-0.07080002 0.22950996 -0.20368007 -0.12570865 0.46784967 0.0052756863 -0.25715074 0.25167206
-0.0074134464 -0.008652212 -0.2702754 0.35059366 0.082549386 -0.13730076 0.40911207 -0.0066022854
0.23478119 0.29676276 -0.08633125 0.14126758 0.14808525 -0.042203743 -0.09643247 0.17159986
-0.22033472 0.08256408 0.027290007 0.5000067 0.018155668 0.2333938 -0.29370844 0.1612262
0.022865675 0.17574613 0.064106196 0.14187738 0.027623419 -0.12829855 -0.12741491 -0.15370916
-0.009485038 -0.16908005 0.08858977 -0.0523741 -0.17311174 -0.029553084 -0.17945322 0.15686522

bias f4 [16]
00000000: c5a0 9abc 0da1 15be f12b f93d f2ef 25bc
00000010: f39f cfbd 4a59 d93d 736c 793d 8eff f7bd
00000020: 254f 31be 89bd 01bd df6a 4cbd 93e7 0d3e
00000030: 85ba fe3d 693b 84bc 657a 023e e557 923e
-0.018875489 -0.14612217 0.12166584 -0.010128008 -0.1013793 0.10612734 0.06089444 -0.1210929
-0.17315347 -0.031674895 -0.049906608 0.1385787 0.124379195 -0.01614161 0.12742002 0.28582683

weight f4 [10, 16]
00000000: 4b9a 9bbb aab6 dcbc aab9 fe3e d67e a3bd
00000010: 2a01 ed3d c6c3 693d 919d d3be 1ea7 94be
00000020: 1b4f 4dbe 95f6 95bc 32cd 3f3f 93f4 b1be
00000030: cb55 43bf e6db 9abe 33a1 043f f066 35be
00000040: 5b95 e5bd 1bb6 02be 27a3 f8be 1ac9 5ebe
00000050: c30a 79be a5e4 25bf d20d c7be cb31 9d3e
00000060: d81d cc3d 133f b63e 4da7 dcbe ecb1 c4be
00000070: 4c0c 4a3f 1a4f d3bd 22c1 9bbd 795f 203f
00000080: 990b cbbe a27e 66be d003 383f 6c3e b23d
00000090: d53d 9cbd 52a9 7bba c961 09be 75be 36be
000000a0: 6606 0bbe 2b32 0f3f c276 2d3e aae3 b7be
000000b0: 8084 ef3e b05e 5d3e acf3 7ebd 0e79 0cbf
000000c0: f048 6aba 3b88 013f 9b33 06bf cad4 693e
000000d0: 3502 14be b3af 323f a3c6 33be 0993 713e
000000e0: 7397 443d eafa 3abe 8454 f53e 517e 85be
000000f0: 16fb f93e f908 cdbc c2e3 aabe bdf9 efbe
00000100: a00e d53e eb09 203e 401a acbd cb3a 473e
00000110: c3c2 833d 3681 42be aa12 67be 6729 ec3d
00000120: daec 413e 01c6 c93d f453 e9bd fe94 8b3f
00000130: 8fc4 a8be 7b6d cb3d 865d 36bf 1325 f5be
00000140: 0612 11be 1ed4 dabd 1ba7 07bf 85f5 b63d
00000150: 0418 50be 4b68 6bbb f73a 323c 6171 a03e
00000160: 9404 aebc 3415 33be 4600 123f 3ba1 463e
00000170: f067 16bc 29c2 283e 97ae 953e 4a44 203f
00000180: 96f5 34bf ae16 89be f2d5 1c3f e357 413d
00000190: 379b 1f3d eced 6bbe 38b9 9ebe 6b33 5a3e
000001a0: 7312 0b3e 1523 97be 6dc0 a6bc f5e7 093f
000001b0: c95c 4fbe 496c a5be 7934 5ebd 902e 153f
000001c0: e4ae c53e 2e4f 383e 6879 bfbe 8d92 a13d
000001d0: b2db 45be 38be 33bf 15b1 4d3f 738e 87be
000001e0: 6845 923d 5b95 c33e f7a9 b039 4722 dabe
000001f0: 4f7b df3d 733c 063e 5769 f13e 743b 0fbe
00000200: a9c3 993e a2df 663d 844c 8a3e f513 89bd
00000210: 0123 6bba 8df9 0f3f cabc 80be 1222 f8be
00000220: 6495 de3c 6975 00bf 545d eebe 0fe2 81be
00000230: 5e13 c43e c731 e73e 9fca bf3d ea9a fe3e
00000240: 2e90 073f be45 d73d 9dad 81be a9d4 e1bd
00000250: 5696 eebb 0aa4 f03e e473 063d 0039 b33e
00000260: 4f67 4bbd a4a2 61be 286d bcbe cf95 a93e
00000270: 6170 a4be cba5 64be b1a8 e43e f291 aabe
-0.0047486178 -0.02694257 0.49751025 -0.079831764 0.11572488 0.05707147 -0.4133115 -0.2903375
-0.20049708 -0.018306056 0.7492248 -0.34756908 -0.76302785 -0.30245894 0.5180847 -0.17715049
-0.11210128 -0.1276478 -0.48561975 -0.21756402 -0.24320512 -0.6480201 -0.38877732 0.30702052
0.0996663 0.35594997 -0.4309639 -0.38416994 0.78925014 -0.10317822 -0.076051965 0.6264568
-0.39657286 -0.22509244 0.7188082 0.08703312 -0.07628981 -0.0009600121 -0.13416208 -0.17846091
-0.1357666 0.55935925 0.16939834 -0.3591588 0.46780777 0.21618152 -0.062244102 -0.54872215
-0.000893726 0.50598496 -0.52422494 0.22835079 -0.14453967 0.69799346 -0.17556243 0.23591246
0.047995996 -0.18259779 0.47916043 -0.26072934 0.48824376 -0.025028693 -0.3337689 -0.46870223
0.4161272 0.15628783 -0.08403444 0.19456021 0.06433632 -0.18994603 -0.22565714 0.11531334
0.18938008 0.098522194 -0.11392966 1.0904844 -0.32962462 0.09932991 -0.71236455 -0.47879848
-0.14167032 -0.106849894 -0.5298936 0.08933548 -0.20321661 -0.0035920318 0.010878316 0.313365
-0.021242417 -0.17488557 0.5703167 0.19397442 -0.009180054 0.16480316 0.29234764 0.626042
-0.70687234 -0.26775116 0.61263955 0.047202956 0.038966384 -0.23039979 -0.31000686 0.21308677
0.13581257 -0.29518953 -0.020355428 0.53869563 -0.20250238 -0.32309178 -0.05424926 0.58274174
0.38609993 0.17998955 -0.37397313 0.078892805 -0.19322088 -0.70212126 0.8034833 -0.26475868
0.071421444 0.38199887 0.0003369597 -0.42604277 0.10912191 0.13108997 0.4715068 -0.13987523
0.3003209 0.056365617 0.27011502 -0.066932596 -0.00089697546 0.5624016 -0.25144035 -0.48463494
0.027170844 -0.50179154 -0.4655558 -0.25367782 0.38296026 0.45155165 0.09364819 0.49727565
0.52954376 0.10511349 -0.2532777 -0.1102689 -0.007281105 0.47000152 0.032825366 0.35004425
-0.04965907 -0.22034699 -0.3680203 0.33122107 -0.32116988 -0.2232887 0.4465995 -0.33314472

bias f4 [10]
00000000: 2146 6abe 65b2 b73e b275 2fbe be09 32bd
00000010: b7d0 003d 5f4f abbe 430d bebd 1e58 213e
00000020: b37c 0f3e 7b43 853e
-0.22878315 0.35878292 -0.17134741 -0.043466322 0.031449046 -0.33458993 -0.09279873 0.1575627
0.14012413 0.26028046
