Code/models/MnistCnnEdmund.model (torch, 47943 bytes, 10 tensors)

weight f4 [16, 1, 5, 5]
00000000: 76a1 fbbd aef9 6fbe 7d93 90be 0b09 7bbe
00000010: 54a1 82be f2c9 6b3e 419b c73d de98 5fbe
00000020: 75bf 0dbe 0bd8 aebe 7842 093e c322 8ebc
00000030: d6ec 9ebd 221c 0ebd 6dc1 1fbe 4ad4 03be
00000040: 4882 473e 3057 f6bd 00c4 3e3d dac2 c33e
00000050: 7fda 9d3b 84ce 503e d75b 213e f57d d93e
00000060: f9a2 5b3e 7196 233d 5409 81be 96a9 d1be
00000070: b25c 03bf 8d94 94be 898b 97bc 3322 12be
00000080: b3a7 4f3e bc5c a53e 0492 533e 7636 7d3e
00000090: abf4 c03e e8e6 fb3e 6f16 0c3f 24b8 a83e
000000a0: 7a2e 2b3e 6a4a 223b 02c9 1dbe fe55 95be
000000b0: 3332 cf3b 4f66 dcbe e47b bdbe c4c4 b4be
000000c0: 7130 f7be 0a7d 47be 0b1d 4c3e ac90 2dbd
000000d0: fe97 ce3d 5247 923e 35ce 17bc e198 a93d
000000e0: f493 a7bd 1249 523e a991 943e 9463 e7bb
000000f0: 5bae 91bb 10fe 1ebe e969 133d afc6 623e
00000100: 56fc 1c3e ba84 89be e530 20bc 3904 6dbe
00000110: fc93 8b3e 9ced e73d edd8 94be 5fab 66be
00000120: 1809 74be 12c3 333e e779 9f3e 54b4 b9bd
00000130: 2af0 03be 317a 1abe 943a 25be c559 df3d
00000140: a646 8abe ffc9 14be c31d 25be 5e51 01be
00000150: 41bc cabd f017 64be 5202 ba3d 59e7 2e3d
00000160: ab6c fb3c 6d8a 58be 1f98 e5bd ca1b 5d3e
00000170: ff77 bc3d 5ed2 c83d 59f2 3fbe 218b 993e
00000180: cb20 633e b592 193c f310 c63b 3201 f7bb
00000190: 4048 2abe 84a7 d7bc e428 aa3e 2e70 933e
000001a0: ed8f 91bd ebc2 42be 2c6a f13d 7213 b13e
000001b0: f3ba ca3d e034 eebd b24c 043e 7afa ac3e
000001c0: 82a9 cd3e c924 67be aeae babe ce38 863e
000001d0: d257 8a3e 1824 2a3e 7c9b 28be f932 e8bd
000001e0: 5cc5 9f3e 41b5 8b3e bc12 25bd 97f1 7d3d
000001f0: 4f2e 92be 5744 17bd 4be1 9b3e 3819 853e
00000200: 2be9 51be 92e1 d4be 92c6 5dbc 99b6 9f3e
00000210: 812c 533e 5bc1 b5be f716 2ebf ca9f a53e
00000220: 27f8 003f b9ec c53d d26d b7be 7dd6 b8be
00000230: 634f c93d f3e0 ef3e c66a ab3e 4908 423c
00000240: 7d36 4dbe f60d 303e f2f8 253e e51d 533d
00000250: a3ff 9f3d 682f 8b3d 89e2 5fbe cb30 a6be
00000260: 8ce1 4bbe 21d3 8ebc 0e83 9b3e 52dd 193c
00000270: 2116 4ebe 64ba 02be 4dd1 23be 7936 843e
00000280: 029f 5bba 86e7 cdbc 7d46 04be 8781 e7bb
00000290: e4b7 bf3e 6ca8 d2bd df8e 56be 038a 6cbe
000002a0: 4b88 723d dd42 ce3e aabd 98be d077 63be
000002b0: 3584 f83b b3e9 383e a3da cc3e 8f62 55be
000002c0: 0b6f 693e da68 623e 3bee e83e efdb 013f
000002d0: b824 023e 4ad4 c83e 73cc 9d3e 424b d63d
000002e0: 9f23 a1be e315 be3e 882f 0a3e 77bd 633e
000002f0: b706 4bbe d520 41bf ffa8 d33e a8a6 b5bd
00000300: d228 b9be 2a3b 0bbf 670e 9bbe 1332 a03e
00000310: 3cd3 d4be d5e3 0ebf f577 b3be 0182 5fbe
00000320: e26e 75be a03d 9fbe 5f05 243e c4d2 17be
00000330: 8abe 00be 809e 43be a477 4ebe 8f0b 833d
00000340: 0e05 91be 5a3d 36be 0d11 113d c4dc aa3e
00000350: 2e62 d93e 3ec2 4c3e 6e87 a43e 5bbf 933d
00000360: 4abc e53e dabf ba3e b81a cb3e cc7c f53e
00000370: 75de 653e e199 19bd 7e8f edbe efd4 8fbd
00000380: 51be aebd 6bf0 0b3e b9a6 f53b dbfa 453d
00000390: cac6 82be 63eb 01bf 1643 8e3e adad 343e
000003a0: c4d1 60bd 3e86 e3be 997f 17bf 9c9b 2b3e
000003b0: 0bb9 883d 69d9 093d 0a61 bc3e 4ff2 0e3e
000003c0: 4586 513e eecc 303e 9df5 853e 7275 2e3e
000003d0: 6943 263f 6868 3e3e 9223 85be 3a8c 8bbc
000003e0: 9c87 a3be 6a2a c1bc 2e05 363e a79f cbbc
000003f0: bbc8 303e ab39 8f3e 7fe6 823e b6da 27be
-0.122866556 -0.23435089 -0.28237525 -0.24515168 -0.2551371 0.23026255 0.09746409 -0.21835658
-0.13842566 -0.34149203 0.13404262 -0.01735056 -0.077600166 -0.0346948 -0.1560113 -0.1287395
0.19483292 -0.120283484 0.04657364 0.38234597 0.0048173065 0.2039128 0.1575769 0.4247891
0.21448888 0.039938394 -0.2520243 -0.40949696 -0.51313317 -0.29019585 -0.018499153 -0.14270858
0.20278816 0.32297313 0.2066117 0.24727806 0.37686667 0.49199605 0.5472173 0.32952988
0.16716948 0.0024763593 -0.1540871 -0.2916717 0.006323123 -0.43046805 -0.37008584 -0.3530637
-0.48279145 -0.19481292 0.19932954 -0.042374298 0.10087584 0.28570038 -0.009265472 0.082811125
-0.08182517 0.20535687 0.2901738 -0.007061431 -0.0044458336 -0.15526605 0.035989676 0.22146104
0.15330634 -0.26859075 -0.009777282 -0.23146142 0.2726134 0.11324617 -0.2907175 -0.2252631
-0.23831594 0.17554882 0.31147692 -0.09067598 -0.12884584 -0.15085675 -0.16135627 0.10905794
-0.27007025 -0.1453018 -0.16124634 -0.12628695 -0.09899188 -0.22274756 0.09082474 0.0427011
0.030691465 -0.21146555 -0.112106554 0.21592632 0.09202575 0.09805749 -0.18744792 0.2998896
0.22180478 0.009373357 0.006044501 -0.0075379843 -0.16629124 -0.026324995 0.33234322 0.28796524
-0.0710753 -0.19019668 0.11787829 0.34585148 0.09898939 -0.11631179 0.12919882 0.33784848
0.40168387 -0.22572626 -0.36461395 0.26215214 0.27020127 0.16615331 -0.16465563 -0.11337847
0.3120526 0.27286723 -0.04030107 0.061997976 -0.28550956 -0.03693041 0.30445322 0.25995803
-0.20499103 -0.41578346 -0.013536112 0.31193998 0.20622446 -0.3549908 -0.6800379 0.32348472
0.5037865 0.09664292 -0.35825974 -0.36101142 0.09829595 0.4685131 0.334799 0.011842796
-0.20040317 0.17192826 0.16208246 0.05154218 0.07812431 0.067961514 -0.2186376 -0.324591
-0.19910258 -0.017434658 0.30373424 0.009391146 -0.20125629 -0.12766415 -0.1599781 0.2582281
-0.0008377881 -0.025134813 -0.12917514 -0.0070650014 0.37444985 -0.1028603 -0.20952938 -0.23099522
0.05921201 0.40285388 -0.29832202 -0.22213674 0.0075841197 0.18057899 0.40010557 -0.20838378
0.22796266 0.2211031 0.45494255 0.5072622 0.1270932 0.39224464 0.30820045 0.10463573
-0.3147249 0.37126073 0.13494694 0.22240244 -0.1982678 -0.7544072 0.4133987 -0.08869678
-0.36163956 -0.5438715 -0.30284426 0.31288204 -0.4156741 -0.55816394 -0.35052457 -0.21826936
-0.2396808 -0.31101704 0.16017674 -0.14826494 -0.12572685 -0.19103432 -0.20162827 0.06398689
-0.2832417 -0.17796841 0.03541665 0.33371556 0.42457718 0.19995973 0.32134575 0.072142325
0.44870216 0.36474496 0.39668822 0.47946775 0.22448142 -0.037500266 -0.46398538 -0.07023036
-0.08532394 0.13665931 0.0074966815 0.048334938 -0.2554229 -0.50749797 0.27785558 0.17644377
-0.054887548 -0.44438356 -0.59179074 0.16758579 0.06675919 0.033654604 0.36792785 0.13959621
0.20461376 0.17265674 0.2616395 0.1703699 0.6494661 0.18594515 -0.260037 -0.017034639
-0.319394 -0.023579795 0.17775413 -0.024856402 0.17264073 0.27973685 0.2556648 -0.16392025

bias f4 [16]
00000000: c3c6 67bd 26da edbc a409 8ebe 3d2f 003e
00000010: 6ed1 2cbf b1c8 b0bd 6c70 87be 43c6 90bd
00000020: ccfd d7bd d2c4 82be 5aae 4bbe 0279 d6be
00000030: 8b7e 2d3e 8aee fb3d 18b8 eebe 48cb bfbe
-0.05658604 -0.029034685 -0.2774173 0.1251802 -0.67507064 -0.08632029 -0.2645296 -0.070690654
-0.10546455 -0.25540787 -0.19890729 -0.41889197 0.16942804 0.12301357 -0.46624827 -0.3745978

weight f4 [10, 16, 3, 3]
00000000: 68a5 a7bc 2bae 303d 9161 263c 3ec7 8fbd
00000010: 4d5c 9ebc 5b65 b4bd 6a4d fb3d f582 a63b
00000020: cd76 66bd d768 fc3c 637e 2a3c 9b2b 0cbc
00000030: e492 023d d39d 063c 4ca9 d5bb 5049 783d
00000040: ae6a 97bd 7ba4 ec3c b92e 183d f0a6 4dbd
00000050: 8d63 0c3c 8060 48bd 62c5 853d 3be1 643d
00000060: 4b06 ae3d 459e 173d 5fff 8ebd 74f4 bcbd
00000070: aceb a43c 18f1 cf3c eb8b 773d 2a60 4bbd
00000080: 0b4c 3f3d 38e8 c93c c6c5 ad3d 0292 5bbd
00000090: 2cd9 033d 710f 133d fab3 e8bd 454e ea3a
000000a0: bfa0 9d3c 7746 4bbd 635a 8eba 1579 f63d
000000b0: 92bd 153d 9771 e8bc 9a88 85bc 740b bb3c
000000c0: bdcf 60bd 0ba4 72bc 3a29 bf3c b76e 463d
000000d0: 377c 083d ca40 b7bd 8cb9 9d3c ef54 04bd
000000e0: 2b0d 3ebd 7ec4 583d 3f13 e63a c74d 97bd
000000f0: 63af 88bc 75db 62bd 3772 e83b 307b 2f3e
00000100: e25b e73d 1674 a43d 2a29 363d ffae f3bd
00000110: 51d0 c7bd 0f37 f6bb 49c4 ba3d 78e3 a03d
00000120: f405 b4bd 1993 d1bd c3a3 e6bd fe65 06be
00000130: d39a 2ebc bd1b ae3d cb16 51bc 969d 97bc
00000140: 662d 8bbd e1e2 f2bd b4eb dfbb 0dc9 9bbd
00000150: f4cb a1bd 8220 c6bb a32c 323d c31a d5bc
00000160: 1908 80bd 447b 87bd 6da6 59bc 3e32 eb3c
00000170: 3981 343d 2e46 f7bc f60c d1bc c29f 563c
00000180: dd71 61bd be08 353d 5a51 80bb c34e 403c
00000190: 2e06 353d e204 793c 7f4d d23c bbf0 34bd
000001a0: d041 8cbc 5020 a8bc 78ce a33d d9a4 e23d
000001b0: 2369 323d c46f ab3d f9af 473d 7fcd 9abc
000001c0: 11ca 843d e52c 903c d4a2 f9bd 98c4 e3bd
000001d0: e095 4abd e7f0 573e d138 7f3e cd48 fe3d
000001e0: e0c3 c13d fcb3 82bd cd3a b3bc 1223 62bd
000001f0: dcd4 96bd 45da ac3d 2a84 78bc 5a62 8cbd
00000200: 9a9b 383d 3ad8 1a3d 2654 cabd 5b25 253d
00000210: 2de4 2f3d 3575 87bd af02 49bd bb82 06bd
00000220: 1e21 733a 950c 50bd fe23 93bc 3206 21bd
00000230: 653b 0dbb 5d0b b83c 3bf9 c5bd 31f4 a63c
00000240: 89eb f6bd cadd b4bc 244b 713e 2d4d 7ebd
00000250: 5f7a dfbd a13b 69be 51e2 7dbd 1cfa 5abe
00000260: da57 34be edfc c33c 12f5 293d 5f79 7bbe
00000270: b9a8 f0bd 3eba 33be 922e 95be 1099 37bd
00000280: 168c 57be 1202 8bbe 47ee 303e 87e6 6f3e
00000290: 8591 683e 3553 cf3b c54a 1e3e dd96 8c3e
000002a0: 390d ebbd 7db6 e2bc ea1c 343e 21e5 3dbe
000002b0: 1c90 ccbc c76e debd 8839 5bbd 8760 c5bc
000002c0: a1b3 7ebc 8042 ecbd e5a1 a93d c424 5fbe
000002d0: 2d4a d7bc e40d 293c be99 673e cc9f 85be
000002e0: c186 09be b786 a13e 633f 96be e75e e5bd
000002f0: 7708 223e aa4f ec3d 1797 f03d 03c3 e83e
00000300: 8d1e 91be a9a0 38be 85b9 ef3e b89e cabe
00000310: e099 b7bd 454e bf3e 3552 05be 6557 723d
00000320: b35d f83d 0584 97bc fb2f 4b3e dc2a cfbb
00000330: 8c4b d33d 62be 553e 781a 2e3e 2a7e 1bbe
00000340: ca3a d4be 9dd8 a3be debd 53be 6a27 babe
00000350: 84c0 b4be 038c bdbe 55b8 cbbe 5011 9abe
00000360: 9947 3cbe 2db2 c43d 1235 a33d 29be c0be
00000370: 4da9 11be 6821 343d 9295 8dbe cb68 b3bd
00000380: 7db4 623e 4b7d bf3c b858 f93d f1be 7c3e
00000390: 9cda 9bbe 95b9 4bbe 1ab2 483e dcf6 8dbe
000003a0: 84ec c8be 685a b33d 03dd b83d ae6d 973e
000003b0: 47df 0e3e d24c cc3d ba5a b83e f86c 9a3e
000003c0: cca3 11be 9f9f 103e a0cc 613e 6067 9abe
000003d0: 295a 9dbe 20b1 47bd 4406 0cbe 2a2f 7cbe
000003e0: da20 aabc 3b29 57be 8157 1ebe 0d9a 10bd
000003f0: d484 153c f89b aabd e6b6 01be b244 b0b9
-0.020464614 0.04313485 0.010155098 -0.07020424 -0.019331122 -0.088083945 0.12270625 0.0050815293
-0.05626564 0.03081171 0.0104061095 -0.008555318 0.031878367 0.008216339 -0.006520426 0.06061679
-0.073933944 0.028887024 0.037153933 -0.050208032 0.008568657 -0.048920155 0.065317884 0.05587886
0.08497294 0.037016172 -0.06982302 -0.09226313 0.020131908 0.025383517 0.06043617 -0.049652256
0.04670338 0.024646863 0.08484988 -0.05360604 0.032189533 0.035903398 -0.11362453 0.0017876109
0.019241689 -0.049627747 -0.0010860678 0.12034813 0.03655774 -0.028374476 -0.016300488 0.02283261
-0.054885615 -0.014809619 0.023335088 0.04844543 0.033321586 -0.089479044 0.019253515 -0.03230756
-0.046399277 0.052921765 0.0017553343 -0.07387882 -0.016685193 -0.05538507 0.0070936936 0.17136836
0.11296822 0.08029954 0.04447285 -0.11898612 -0.0975653 -0.0075138877 0.0911947 0.07855886
-0.08790198 -0.10233135 -0.11261704 -0.13124844 -0.01065703 0.085013844 -0.012761782 -0.01850776
-0.067957684 -0.1185968 -0.006833518 -0.07606707 -0.07900229 -0.0060463557 0.0434996 -0.026013738
-0.062515445 -0.06615308 -0.013284308 0.02871048 0.04406855 -0.030184831 -0.025518876 0.013099613
-0.05504023 0.04419779 -0.003915948 0.011737528 0.044195347 0.015198918 0.025671719 -0.04417489
-0.017121226 -0.02052322 0.07998365 0.110665984 0.043557297 0.08370927 0.048751805 -0.018896816
0.064838536 0.017599532 -0.1218926 -0.11121482 -0.04945934 0.2108799 0.24924017 0.124162294
0.09461188 -0.063819855 -0.021878624 -0.055209227 -0.073648185 0.08440069 -0.015168229 -0.068546966
0.04507027 0.037803866 -0.09879331 0.040318828 0.042942215 -0.06614152 -0.049074825 -0.032839518
0.0009274649 -0.05079325 -0.017961498 -0.03931255 -0.0021550294 0.022466356 -0.096666776 0.020380111
-0.120566435 -0.022078414 0.2356382 -0.06208532 -0.10912012 -0.22776653 -0.06198341 -0.21384472
-0.17611638 0.023924315 0.041493483 -0.24558018 -0.11750931 -0.17551515 -0.29137093 -0.044823706
-0.21049532 -0.27150017 0.17278396 0.23427783 0.22711761 0.0063270577 0.1545821 0.2745885
-0.114771314 -0.027674908 0.17589155 -0.18544437 -0.02497106 -0.10860973 -0.053521663 -0.02409388
-0.015545757 -0.11536121 0.08282832 -0.21791369 -0.026280487 0.010318253 0.22617242 -0.26098478
-0.13430311 0.31548092 -0.29345235 -0.11199742 0.15823542 0.11538632 0.11747568 0.45461282
-0.2834362 -0.18030037 0.46821228 -0.39574218 -0.08964896 0.37364402 -0.1301964 0.059165377
0.12127247 -0.018495569 0.19842522 -0.006322248 0.10317144 0.20873407 0.17002285 -0.15184847
-0.41451102 -0.320012 -0.20677897 -0.36358196 -0.35303128 -0.37020883 -0.39789072 -0.30091333
-0.18386687 0.09604297 0.07969107 -0.3764508 -0.1422474 0.04397717 -0.27653176 -0.08760222
0.22139163 0.023375174 0.12175125 0.24682213 -0.30440223 -0.19895013 0.1959919 -0.277274
-0.39242947 0.08757478 0.0902653 0.29575866 0.13952361 0.0997559 0.3600672 0.30161262
-0.1422264 0.1412339 0.22050714 -0.30156994 -0.3073285 -0.048752904 -0.13674265 -0.24627367
-0.020767618 -0.21011822 -0.15463068 -0.035303164 0.009125907 -0.0833053 -0.12667426 -0.00033620518

bias f4 [10]
00000000: 6809 e5bd 21cd 97be d214 0abd 7cef df3c
00000010: 5b41 a23c 29e7 78be b3d3 17be b1a8 0dbe
00000020: 1fda 08be 7c99 6cbd
-0.11183435 -0.29648688 -0.033711262 0.027335875 0.019806555 -0.2430693 -0.1482685 -0.13833882
-0.13364457 -0.05776356

weight f4 [32, 250]
00000000: db3a 9ebb 3d7d 69bc b565 ba3b d1ba 663d
00000010: df9a 763d 28ce 663c e69c 193d 3528 57bd
00000020: f28c 083d e9d9 073d 5207 383b 9db1 3ebd
00000030: 30ee c4bc 0e47 623d d30a 803d 7bbc f63a
00000040: 5787 773c e345 47bd 3f1f 863c 6693 673c
00000050: 36d0 9f3a a88f 87bd 8e8a 993c bedd ad3b
00000060: 4ae9 603c 9f48 673c 9790 debd fbe9 19be
00000070: 4b8e 13be 506c 73bd 2bca 823e cbed f13d
00000080: 22b6 f5bd 8ff9 34be 9d6b b5bc 43e4 6f3e
00000090: 5f09 1c3f 083b 9d3d 6b18 0fbf d7c8 a53d
000000a0: 7799 a13e f0ab e03e b869 98be acc5 85bd
000000b0: 9ac8 a63b 4c39 123e 8203 b43d 30e5 7cbe
000000c0: 5bf0 35be c69f 953c 3157 97bc 57ff 23bd
000000d0: 73e2 7e3d d95a 41ba 43c2 7e3b 0378 5f3c
000000e0: 744b 173d c3f4 373d 9b22 68bd d82a 9bbc
000000f0: 7f3c 76bd 2096 0a3c 489c 4f3d 9f35 26bd
00000100: c6a3 a73c 8333 f4bc 2fb7 bcbc dfbc de3b
00000110: 7a65 70bd ebf3 fdbc cb29 4ebd 94d8 9bbb
00000120: 2329 f1bb eb21 403d c2ca e13c 65d6 cf3b
00000130: 28e2 303d 1e83 1a3d 0df0 37bd fd1c e1bb
00000140: 43c1 4d3d fb94 edbc c2d7 c73c 01c4 e8bc
00000150: 708e 443d 716c 0abd 1238 243d cbff 513d
00000160: 4915 423d c162 563d 7221 2bbc 73ca 26bd
00000170: b0a9 69bd b710 86bd 1b7f 3b3c b290 85bd
00000180: 0928 64bd 0fe6 e3bc 6795 563d 1685 55bc
00000190: ffd5 943d 5141 2b3d 368d 13bd d21c b6bd
000001a0: 9126 60bb 5af5 4b3c b15a 293e 1d68 f0bc
000001b0: 725f b7bd 521f bf3a d7ef 06be 9238 e0bb
000001c0: 1641 29be cbe4 37be 2a33 a7bd 386e ef3d
000001d0: b2af 763d 10b5 cfbc 612f b9bb 6040 773d
000001e0: e979 dabb 1bbd 5bbc d07b 15be 1e06 c5bc
000001f0: a136 08bd c011 7c3c 8149 963c e605 34bc
00000200: 570c eabd 4989 9a3b 89b8 8dbc a65c 943e
00000210: 5b00 1d3e 0e78 6abe e012 78be b705 e2bc
00000220: 6b73 233e 1353 dcbc d6ff dcbd 393a 67be
00000230: c277 61bd 5580 763e 192a 4b3e 8964 ebbd
00000240: b2a8 e0bc fa53 cc3c a54b 813d 7b70 1bbe
00000250: 632d 443e ae30 ec3d a7d4 0dbe 4b37 c8be
00000260: d929 cabd b00b 593e a600 5a3e a731 4abd
00000270: 54fc a2bd c72b 4dbe b22a 1c3d 6602 2ebc
00000280: 134b a13e 2a0a e53e 859c 3e3e 8e83 5e3d
00000290: 4021 803e 9f7c 603c 913e d2bd 437c 42bc
000002a0: db4f 403e 9343 d5bd 8a16 22be 5187 733e
000002b0: 90e6 033e 01b3 263d 4e81 9f3c da19 edbb
000002c0: f968 9a3c 1807 7e3d cf26 253e 35c9 213e
000002d0: 6437 79bd b0f2 89bd 9661 0fbd 4f1c 573b
000002e0: 282d 903d 2ec7 6dbd d86e 88be 053c aabe
000002f0: 9b0f 013e 00a2 853e 8947 4d3d 4d69 5ebe
00000300: 3ab5 0abe 54bd 273c 5246 083e 8660 a8bd
00000310: ba74 1cbe e0a7 7dbe be24 ef3d 1cf8 cb3c
00000320: 993f cb3c 9cc8 3c3e 41c8 813c 0540 1bbb
00000330: 5519 43be efec f33a 92b9 0bbe 9661 b3be
00000340: 8c2d ecbd dbd1 603e 61c1 143e c5a2 563e
00000350: a543 233f 8ff9 00be dfc1 31bd 774d 4b3e
00000360: f53c b93e 2187 14bd 17d2 a6bd d17e 913d
00000370: 1c86 89bd 63b8 eabe a125 c0be 6339 ec3d
00000380: 4bd1 db3d 5f2e 0abd bb9b 8f3c 1c05 94bd
00000390: 3715 2a3c 2a01 a9bc 36fd 693c 4d7d 1cbd
000003a0: 6bc7 febd 1562 173d 108b b93d b0ff 80bc
000003b0: 0593 c5bd 2412 a63c 4167 cbbc c9a8 3c3c
000003c0: 8ab5 d0bd 72cb 4ebe bd63 4abe 184d c4bc
000003d0: 44bf 1abd c505 20be 3e19 3bbe 2f89 a1bd
000003e0: e1e6 2dbd 3baa 1d3c 60b0 7f3d a7e4 91bc
000003f0: cd29 763b a479 91bb d727 3abd d569 94bc
-0.0048287935 -0.014251051 0.005688394 0.056330506 0.06020629 0.014087237 0.037503146 -0.05252858
0.03333754 0.0331668 0.0028080535 -0.046556104 -0.024039358 0.055243544 0.062520646 0.0018824482
0.015107951 -0.048650634 0.016372321 0.014134264 0.0012192789 -0.06619197 0.018742826 0.0053059747
0.013727495 0.014116435 -0.10867422 -0.15030663 -0.14409749 -0.059429467 0.25544867 0.118129335
-0.1199763 -0.17673324 -0.02214604 0.23426919 0.609518 0.07677275 -0.55896634 0.08094948
0.31562397 0.43881178 -0.29768157 -0.065318435 0.0050898315 0.1427967 0.087897316 -0.24696803
-0.1776747 0.018264662 -0.018474193 -0.040038433 0.062227678 -0.0007375903 0.0038873113 0.013639453
0.036937192 0.044911157 -0.056673627 -0.018941328 -0.060116287 0.008458644 0.05068615 -0.04057848
0.020463835 -0.029809719 -0.023036567 0.0067974175 -0.058690526 -0.031000098 -0.050332826 -0.0047560427
-0.00735964 0.046907347 0.027562503 0.0063426965 0.04318443 0.0377227 -0.044906665 -0.0068699108
0.050233137 -0.029001703 0.024394874 -0.028413774 0.0479874 -0.033794824 0.040092535 0.051269334
0.04738358 0.052340273 -0.010444986 -0.040720414 -0.057046592 -0.06546157 0.0114438785 -0.06521739
-0.055702243 -0.027819661 0.052388575 -0.013032218 0.07267379 0.041810337 -0.03602334 -0.08892216
-0.0034202675 0.012448633 0.16538502 -0.02934652 -0.089537516 0.0014581478 -0.13177429 -0.006842681
-0.16528735 -0.17958371 -0.08164056 0.116909444 0.06022615 -0.025354892 -0.0056514 0.060364127
-0.006667365 -0.0134117855 -0.14598012 -0.024050768 -0.033255223 0.015385091 0.018345596 -0.010987734
-0.11428135 0.0047160727 -0.017299907 0.28976935 0.15332167 -0.2289736 -0.2422595 -0.027590616
0.15961997 -0.026895082 -0.10790984 -0.22580804 -0.05504585 0.24072392 0.19840278 -0.11493785
-0.02742419 0.024942387 0.06313256 -0.15179627 0.19157939 0.115327224 -0.13850652 -0.39104685
-0.09871263 0.21195865 0.2128931 -0.04936376 -0.07958284 -0.20036231 0.038126655 -0.010620689
0.3150259 0.44734317 0.18614395 0.05432468 0.25025368 0.013701587 -0.1026584 -0.011870447
0.18780462 -0.104132794 -0.1582891 0.23782088 0.12880921 0.040698055 0.019470837 -0.0072357478
0.018848883 0.062018484 0.16128086 0.1579941 -0.06084384 -0.06735742 -0.035005175 0.003282327
0.07039863 -0.05805128 -0.26647067 -0.33248916 0.1260361 0.2610016 0.05011705 -0.21719857
-0.13545695 0.01023801 0.13308075 -0.082215354 -0.15278903 -0.2477107 0.1167693 0.024898581
0.0248106 0.18435901 0.015842559 -0.0023689282 -0.19052632 0.001861004 -0.13645008 -0.3503539
-0.11532125 0.21955054 0.14526893 0.20960529 0.6377509 -0.12595199 -0.04339778 0.19853769
0.3617932 -0.03626168 -0.0814554 0.071042664 -0.067150325 -0.458438 -0.3752871 0.11534383
0.10733279 -0.03373563 0.017530313 -0.07227537 0.010381035 -0.020630438 0.014281562 -0.038205434
-0.1244038 0.036958773 0.09059727 -0.015746921 -0.096471824 0.020272322 -0.024829509 0.011514851
-0.10190876 -0.20194796 -0.1976461 -0.023962542 -0.03778006 -0.15627201 -0.18271348 -0.07887494
-0.04245651 0.009623106 0.062424064 -0.017809225 0.0037561536 -0.0044395495 -0.04544815 -0.01811687

bias f4 [32]
00000000: 6c22 15bd a668 0abd 8ad1 42bd c812 81bd
00000010: 27c2 53bd 5583 90bb 8ccd 513d c552 bc3d
00000020: ce84 f63c 10d9 74bd 8880 0cbd b144 193d
00000030: c391 963d 3abb 233d 3594 e03c 71c6 5d3d
00000040: ce96 d83b f99c 3a3c 82ee 16bb aabe 8abb
00000050: ed6a af3d a432 e9bc 8c1f 06bd 1990 90bd
00000060: 006a 23bd 48bc 6e3d afcb 313d 64fb d43c
00000070: 3abd 73bd 1fba e5bc ec74 133c b0c5 c93a
-0.03640978 -0.033791207 -0.047563113 -0.0630241 -0.05169883 -0.0044101872 0.051221415 0.091954745
0.030092623 -0.05977732 -0.034302264 0.037419025 0.073520206 0.039973475 0.02741442 0.054144327
0.006609774 0.011389964 -0.0023030345 -0.0042341547 0.08565316 -0.02846653 -0.03274493 -0.070587344
-0.03989601 0.058285028 0.04340714 0.025998779 -0.059506632 -0.028042851 0.009000044 0.0015393998

weight f4 [16, 32]
00000000: 93e0 433f a087 20bc 7af2 33bf 3c27 dabd
00000010: d2a9 a9bd b197 433e 9cf9 42ba 3f1f bdbd
00000020: 73ec c2bd 2c2f ecbd 5046 2dbe 6c45 0f3f
00000030: cc42 cb3d 3486 c33d b013 43bd 3887 1f3d
00000040: 83e7 0cbf a017 e73e 7b4f 5dbe f7ce 313e
00000050: d151 f53e ab10 843e 7b4d 17be 4f0e 4ebe
00000060: 059b fabd 251d 78bd 57ab 51bf ff2c 19be
00000070: 4b63 adbc 785e 1abf 74ec ce3e 236d db3e
00000080: 0979 0ebd 58a1 97bd 9fac 003e 2536 d43d
00000090: 3263 cd3d 9b28 eb3d 0072 1abe adaf a73e
000000a0: fd07 a0be 510d 723f 5aec 70bc 2525 db3d
000000b0: 0c6d 0cbe 2c49 babd fc7a ee3b dba8 ccbd
000000c0: 44eb ddbd 9bd0 023d 96e1 ae3e adae 92be
000000d0: 376a 55bd 08af f9bd ca23 053d d518 2fbe
000000e0: fdff 043e bb1f 013e ffc6 2f3d 16a7 81bd
000000f0: 79f1 f23d e2ec 40bc c8c4 43bd 6ce5 b93e
00000100: 2bfa 8a3e 0d53 323e 50ff 9ebe 9c1e 99bd
00000110: 18f1 b83d 98d1 24bf 080f 013c fcd8 c33e
00000120: 80fc 663e 4b23 cfbe 876c 593e 3fcf ac3e
00000130: bc98 ce3e 6e2b dbbe b283 6f3e d656 3bbe
00000140: d111 b7be 8417 343f 65f2 38be 1fb7 a83e
00000150: 0196 6f3e e7e0 893e bc44 1bbe 85a3 3fbd
00000160: 1038 33be 4a26 ba3e 0985 833f a0f3 703d
00000170: fbf2 11be bc67 1abf 1a9b 0a3f 77b6 d0be
00000180: 1b5b e8be c7fd dfbd 9ae9 dd3d 9531 2abe
00000190: f09b 41bd 218a 24be 00c3 283d e812 513f
000001a0: efdc 75be 18f8 a1be 11f9 933e 06b8 993e
000001b0: cdca 9f3e bdae 103f 4fd3 23bf 7d23 ab3c
000001c0: 9bbb 823e 7393 bb3e b731 3bbe b62f c33e
000001d0: b78a d83e 71bd 52be dac9 f4bd d901 25be
000001e0: 4d68 29bd 265c 273f b751 aebe 4469 10be
000001f0: 6440 cf3c 2144 b83e 6025 27be 7efc 3a3d
00000200: 8ffb d4bd 0420 ffbd b237 16be 7340 1dbe
00000210: 6fec c5bd c313 05bc e150 bf3d c313 ebbd
00000220: 6688 1f3d 3a54 39be a5e8 0ebe 8161 fa3b
00000230: e531 afbb 9b85 06be d075 dd3d 94cd 2a3e
00000240: 71e4 28be 3423 363e 7c4a 14be f36d b9bd
00000250: 9384 39bc 4b88 ff3c 57ef 9cbd 392e 66bd
00000260: 8415 c93d 4ae2 e33c c99b 213c 1570 013e
00000270: 767f a2bd e2e1 4c3d 1262 403e fe02 53bc
00000280: 2c57 303d a6c9 8a3d bf7d 47be d890 043e
00000290: cdd5 173c 6230 c03e 3eba a8bd 111a 953d
000002a0: f716 a53d eafe 373e a362 0b3e 22be 81be
000002b0: 712e 35be ba9e 3ebe 4aba 2cbe 66fb bfbd
000002c0: 886d c6be 2a03 c2bd e0d9 883d 631c 133e
000002d0: 43e3 c23e 6570 bebd 4453 34be 0dd9 323d
000002e0: d45b 39be 80f3 563c 8381 b13d 72c7 d9bd
000002f0: ac84 f23c f509 fa3d 9c8e 713d 322c bb3d
00000300: 78ef b83e 54bd 0c3e f900 b03e 0926 253e
00000310: 512b 123e 7452 ad3e c603 20be 4f4b 53bf
00000320: dd56 c1bd 0a8c cabe 4e84 95bd 20c8 e53d
00000330: 82d2 33be ed3a b43e aaa4 48bf 8975 a23c
00000340: 40c2 a63e 363a 0dbd e7d3 1dbe 25d0 c43e
00000350: ce30 a03e e800 9ebe c39e 0d3e 4fee 053d
00000360: 9072 083f 3503 4abf eb74 ea3e e99a d73d
00000370: 03c5 3a3e 5a45 42bf 3d94 b73e 5c3c e9bd
00000380: 4312 78be 5b7b 513d dbea 983d 535a e1bd
00000390: 299c bdbc 53ec 7c3e af95 3d3d 3b7c 523e
000003a0: 3498 a23e 3d61 563a f82f dcbd 80cb b8bd
000003b0: bc8c aabe e093 b4bb 4352 bebd b4f1 8cbd
000003c0: d30b cdbe 5f05 3fbe b3fc 74be 4ae8 80bd
000003d0: af37 053f baba 1bbe c2ae 8b3d 9f70 7c3b
000003e0: b623 85be a4ea 13be 6bb7 d0bd 198e 1a3e
000003f0: d683 be3d c632 d93d 888c 79be 75e0 34be
0.7651455 -0.0097979605 -0.70291865 -0.106520146 -0.08284344 0.19100834 -0.00074377074 -0.09234475
-0.09517755 -0.11532435 -0.16921353 0.55965304 0.0992485 0.095470816 -0.047626197 0.038947314
-0.5504076 0.45135212 -0.2161235 0.17364107 0.47913983 0.25793967 -0.1477565 -0.20122646
-0.12236599 -0.06057467 -0.8190207 -0.14958571 -0.02116551 -0.603004 0.40414774 0.42856702
-0.034783397 -0.07403821 0.1256585 0.1036189 0.10028686 0.11482354 -0.1508255 0.32751217
-0.31256095 0.9455157 -0.014704788 0.10700444 -0.13713473 -0.09095988 0.0072778445 -0.09993144
-0.10835889 0.031937223 0.34156483 -0.28648892 -0.052103247 -0.12191588 0.032504834 -0.17099316
0.12988277 0.1260976 0.042914387 -0.06330697 0.118624635 -0.011775227 -0.047795087 0.36307847
0.27143988 0.17414494 -0.31054163 -0.074765414 0.0903036 -0.64382315 0.007877119 0.38251483
0.22557259 -0.40456614 0.21232806 0.33751866 0.40350902 -0.42806572 0.23390082 -0.18294844
-0.3575578 0.7034838 -0.18061216 0.3295221 0.23397066 0.269294 -0.15162939 -0.046786804
-0.17501855 0.36357337 1.0274974 0.05882609 -0.14252846 -0.60314536 0.54142916 -0.4076421
-0.45382008 -0.10937076 0.108355716 -0.16620477 -0.047267854 -0.16068317 0.04120159 0.81669474
-0.2401006 -0.31634593 0.2890096 0.3002321 0.31209412 0.5651663 -0.63994306 0.020890946
0.25533757 0.36635932 -0.18280683 0.38122338 0.4229333 -0.20580079 -0.11952563 -0.16113986
-0.041359235 0.6537498 -0.34046718 -0.14102656 0.025299259 0.35989478 -0.16322851 0.04565095
-0.103995435 -0.12457278 -0.14669684 -0.15356617 -0.09664237 -0.008122387 0.09341598 -0.114783786
0.03894844 -0.18098536 -0.13955934 0.007641018 -0.005346524 -0.13136904 0.108134866 0.16679984
-0.16493393 0.17786866 -0.14481539 -0.09054174 -0.011323112 0.03119292 -0.07662838 -0.056196425
0.09818557 0.027817864 0.009863802 0.12640412 -0.079344675 0.050020106 0.18787411 -0.012879131
0.043051884 0.06776743 -0.19481562 0.12945879 0.009267283 0.37536913 -0.08238648 0.072803624
0.08061021 0.17968336 0.13611846 -0.25340372 -0.17693497 -0.18615237 -0.16867939 -0.09374122
-0.3875544 -0.0947326 0.06682181 0.14366297 0.38064012 -0.09298781 -0.17609888 0.043664027
-0.18101436 0.013119578 0.086672805 -0.10633744 0.029604279 0.122089304 0.058973894 0.09139289
0.361202 0.13744098 0.34375742 0.1612779 0.14274336 0.3385197 -0.1562644 -0.82536787
-0.09440396 -0.39559966 -0.07300626 0.112198114 -0.17560771 0.35201207 -0.7837626 0.019831436
0.32570076 -0.034479342 -0.15412866 0.38440052 0.31287235 -0.30860066 0.13830094 0.032697972
0.5329981 -0.78911144 0.45792326 0.10527594 0.18239217 -0.7588707 0.35855284 -0.11388466
-0.24225716 0.05114303 0.0746667 -0.11003556 -0.023145752 0.24699526 0.046285328 0.20555203
0.31756747 0.0008177942 -0.10751337 -0.090231895 -0.33310497 -0.005510792 -0.09293034 -0.06882039
-0.40048084 -0.18654393 -0.23924522 -0.062943056 0.5203809 -0.1520795 0.06820442 0.0038519276
-0.26003808 -0.14444977 -0.10191234 0.15093268 0.093024895 0.106053874 -0.24370015 -0.17663749

bias f4 [16]
00000000: 343c 8e3d 306a 4abd e062 a33d 8550 de3c
00000010: d28d 32be cc9d 553e 9f77 1a3e cce0 293e
00000020: a14d 1dbe 7421 00be 53f6 ce3d 264e 55bc
00000030: 5274 1abe e15a d1bc da90 893e 53d8 c0bd
0.069450766 -0.049417675 0.07977843 0.027138004 -0.17436913 0.20860976 0.15084694 0.1658966
-0.15361644 -0.12512761 0.10105576 -0.01301912 -0.15083435 -0.02555603 0.26868325 -0.094162606

weight f4 [10, 16]
00000000: 5daf 14bf 84d2 4f3d 8be2 593d 959d 04bf
00000010: 14aa 3abe 8de0 253e ecc8 12bf a5bb 0c3e
00000020: de5e 0b3e 1e8d 45be 266f ba3f 7757 51be
00000030: 75da 6abc 2a58 babc 8f7d f6bd 594e 333d
00000040: 7824 a33e ad68 82bd 961c 94be a50e 0cbb
00000050: f500 42be e5b2 0e3f bbb6 62be 7c01 3c3f
00000060: b1a8 77be c6dc 753b bd02 ecbe 1376 413d
00000070: f86a b6bd 2b6a 493d 62ac 893f 5f4d 8cbc
00000080: aede bf3e 0149 8d3f 14e8 8ebe 491a 9c3e
00000090: 66a8 783e 63b7 403e b646 adbe 3147 033e
000000a0: 83f3 02be 295b 2c3e 7868 68bd 1469 233e
000000b0: 2ee8 3c3c b0ab 53bd 9280 71be caf9 8ebd
000000c0: 8133 cf3e bfa8 7cbd d4de 543f 183e 893f
000000d0: dc0b abbd 1f42 69be 7191 4cbf a60f 9fbe
000000e0: afff b33d 6ada 36be dfb9 d3be b67c 89be
000000f0: ac76 933e 7820 b1be 9546 babe dcee f13d
00000100: 0524 dcbe 7229 a0bc 692a 48bf 1418 ecbe
00000110: 244a 533c e90e db3d 6b54 ff3e af21 12bd
00000120: bdf0 8bbd f7ef 8c3f 857d ddbe 9011 153f
00000130: a520 06be 3dfc c13d 2090 4bbd c26c 46be
00000140: 67ab 4ebe 25a8 2cbe 55a8 7c3f 3ad9 c2be
00000150: 0932 083e 9e60 953e e268 0a3f 905d f3bd
00000160: 19c4 b03d a6af 9abe 9929 efbd fd91 263e
00000170: 7678 073f 6bc8 c8bb 6bb6 aa3d 2ff8 8cbd
00000180: 7c0c 4d3e eec0 ed3b 3186 593f d8a9 30bf
00000190: 67d8 c63d 965d eebd 3e3a 11bf c771 62bd
000001a0: 4a4b b5be d1d7 3c3f b5f6 283e 5a6a debe
000001b0: 02a4 aebe 5ff1 a03c c633 a63c aeff e4bc
000001c0: cd94 04bf 966b cd3d 78da 31bf 4e46 553f
000001d0: 68bf cabd da58 48be 8550 fbbe c031 343b
000001e0: c62e 733f 17fb 11be e6f0 e8bd 6da5 893e
000001f0: be6d 02be 9a53 273f 91f2 86be 420f b4bd
00000200: 4f12 913f 899a 08be 5fc4 05bf 4da8 a9bd
00000210: 2d20 343d 900f 29be f242 173f 1482 59be
00000220: 7602 87be 4541 e3be 21dd 0d3e f3a8 f8be
00000230: c16c 68be 32bb 80bd 6daa b5be cbe3 3e3d
00000240: 4cb2 1ebf caf5 3cbe 1b97 88be dd86 b23e
00000250: 9204 583c 85ea 9f3c 9ccd 793f 58e4 2f3d
00000260: 798b d9be ab45 41bf 309c 013e aef6 363f
00000270: bb10 42be a5ff debc e6c5 88be 2357 75be
-0.58080083 0.050737873 0.053194564 -0.5180295 -0.18228942 0.1619894 -0.5733783 0.13743456
0.13610408 -0.19292113 1.456517 -0.20443521 -0.014334311 -0.022747118 -0.12035667 0.04377589
0.3186376 -0.063676216 -0.2892806 -0.0021371034 -0.18945678 0.5574172 -0.22140019 0.73439765
-0.24185444 0.0037515624 -0.4609584 0.047231745 -0.089071214 0.049173515 1.0755732 -0.017126737
0.3747458 1.1037904 -0.27911437 0.30488804 0.24282989 0.18819956 -0.3384301 0.12820126
-0.12788205 0.1683165 -0.056740254 0.15958053 0.011529965 -0.051677406 -0.23584202 -0.06981237
0.40468982 -0.061684366 0.8315251 1.0722075 -0.08351871 -0.2277913 -0.79909426 -0.31066626
0.08789002 -0.17856756 -0.41352746 -0.2685296 0.28801477 -0.34595084 -0.36381975 0.11813137
-0.4299623 -0.019551013 -0.7818971 -0.4611212 0.0128960945 0.10696203 0.49869093 -0.035676654
-0.068330266 1.1010731 -0.43259826 0.58229923 -0.1309839 0.09471939 -0.049697995 -0.19377425
-0.20182572 -0.16861017 0.98694354 -0.38056356 0.13300337 0.29175276 0.5406629 -0.1188308
0.08631153 -0.30212134 -0.11677856 0.16266628 0.52918184 -0.0061274073 0.08335575 -0.06883275
0.20024294 0.007255665 0.84970385 -0.6900916 0.09709244 -0.11638944 -0.56729496 -0.055284288
-0.35409003 0.7376681 0.16500361 -0.43440515 -0.34109503 0.019646345 0.02028836 -0.027953949
-0.5178955 0.10030286 -0.6947398 0.833104 -0.09899789 -0.19565144 -0.4908487 0.0027495474
0.94993246 -0.1425594 -0.11374073 0.26884022 -0.12737176 0.6536194 -0.26356938 -0.08791973
1.1333712 -0.133402 -0.52252764 -0.08284054 0.043975998 -0.16509843 0.59086525 -0.21241027
-0.26369065 -0.44385734 0.13853885 -0.48566398 -0.22697736 -0.06285705 -0.35481587 0.04660396
-0.6199081 -0.18453136 -0.26677784 0.34868518 0.013184683 0.019521007 0.9757936 0.042942375
-0.42489222 -0.7549693 0.12657237 0.71470153 -0.18951695 -0.02722151 -0.26713485 -0.23959021

bias f4 [10]
00000000: 3475 14be 4d8f 603d 0cc6 63bd 284d d1bd
00000010: bcc8 47be 3565 35be f592 05be 4ce2 4b3b
00000020: feae 31be 16c1 4e3d
-0.14497834 0.054824162 -0.055608794 -0.102197945 -0.19510168 -0.17714389 -0.13044341 0.0031110225
-0.1735191 0.05047711
