Code/models/MnistCnnFiona.model (torch, 47943 bytes, 10 tensors)

weight f4 [16, 1, 5, 5]
0.13664006 0.141959 0.36496758 0.13594839 -0.13940689 -0.10229297 0.14602038 0.18678631
0.15636584 -0.07852353 -0.39868915 -0.108919956 -0.102103814 0.15447144 0.026923826 -0.3547153
-0.03760925 -0.18081892 0.0985679 0.037801865 -0.16474578 -0.034832526 0.10703022 -0.029307788
0.19210795 -0.22078606 -0.37712175 -0.37105557 -0.052311555 0.35922754 -0.42264166 -0.35071835
-0.38285646 -0.075096704 0.5436436 -0.31464326 -0.3213238 -0.2735775 0.23435067 0.4789219
-0.36002398 -0.048765834 -0.12823182 0.2490379 0.29318377 -0.17255291 0.16796097 0.2794058
0.41961497 0.13937248 0.36659378 0.40400586 0.09755188 0.036213167 0.04899722 0.12643866
0.34552073 0.42055655 0.37454256 0.2616709 -0.24507843 -0.14113894 0.0020707662 0.08442923
0.014258063 -0.55173147 -0.3014476 -0.28884664 -0.4280832 -0.45282286 -0.51073843 -0.5345852
-0.54440176 -0.41743788 -0.40215135 0.17615864 -0.05567433 -0.14177443 -0.42745948 -0.2842967
-0.12799591 -0.02529303 0.0039251414 0.14093652 0.00050467264 0.18377537 0.49251506 0.40047312
0.38857916 0.12530328 -0.27261686 -0.16617757 -0.04059002 0.110246025 -0.085579395 -0.22127931
-0.26838934 -0.3063861 -0.10556968 -0.10136135 -0.00044185822 -0.3280386 -0.13478278 -0.1312718
-0.23709664 -0.6901484 -0.55049914 -0.5259319 -0.5264376 0.043304056 -0.28029636 -0.31074134
-0.21425028 0.23393565 0.32612202 -0.1844239 0.15860032 0.20906809 0.32512173 0.19434974
0.53356636 0.52997667 0.5152129 0.15532085 0.07637059 0.11844657 -0.18994258 0.034151573
0.14740962 -0.021703046 0.15740244 -0.13322724 -0.1464979 -0.041768022 0.16858613 -0.15721105
0.12878998 -0.022888044 -0.1648592 0.08535226 -0.1618039 -0.1724042 0.13854405 -0.1813045
-0.13981323 0.11633296 -0.15157248 0.05407963 -0.088748455 0.020386018 -0.05635591 0.369923
0.3994273 0.09238919 -0.07150821 0.09941662 0.49739426 0.034868576 -0.31840596 -0.4878517
0.36294925 0.7925497 0.073313795 -0.65690905 -0.6791456 0.42680272 0.7735382 -0.20546374
-0.607801 -0.37179583 0.18090783 0.5452334 0.20848295 -0.1974666 -0.24759802 0.122778445
-0.12889169 -0.12626116 -0.008206669 0.23694524 -0.19072333 -0.27456227 -0.14909026 -0.03734443
0.33980888 -0.26382032 -0.34954327 -0.45654756 -0.13269208 0.35673147 -0.23666388 -0.14650312
-0.21740733 -0.08579438 0.46358123 -0.11357685 -0.1348876 -0.21163113 0.082575515 0.50834465
0.31528705 0.10046913 0.01064006 0.21202515 -0.09564618 -0.15072452 -0.04596343 0.17688479
0.057924557 0.2447773 -0.043165997 -0.17682286 -0.16763851 -0.022106148 -0.04740789 0.12645184
0.017701944 -0.029759511 -0.062323503 -0.28190228 -0.10365086 0.033684906 0.103005424 -0.14759755
-0.11364542 -0.16982524 0.022700319 0.17750597 0.13453765 -0.06591585 -0.20604306 0.18735173
-0.069846705 0.01944819 -0.038506627 0.11385459 -0.14191733 0.014044557 -0.026798686 -0.051465966
-0.008855328 -0.13324964 -0.22087677 -0.12978877 -0.08958062 -0.10103877 -0.1940143 0.007491401
-0.11530119 -0.15056622 -0.16000597 -0.053020872 -0.049973138 -0.18640679 -0.03085384 0.06549917
00000000: 5feb 0b3e b35d 113e 08dd ba3e 0e36 0b3e
00000010: aec0 0ebe fa7e d1bd 5e86 153e e944 3f3e
00000020: 5e1e 203e f2d0 a0bd fc20 ccbe 6d11 dfbd
00000030: ce1b d1bd c32d 1e3e 5b8f dc3c 3e9d b5be
00000040: 280c 1abd 9828 39be f8dd c93d 21d6 1a3d
00000050: 1eb3 28be 8dac 0ebd a932 db3d e316 f0bc
00000060: f2b7 443e be15 62be 1a16 c1be fffa bdbe
00000070: a444 56bd acec b73e 7d64 d8be 5b91 b3be
00000080: c305 c4be 4dcc 99bd 3a2c 0b3f ec18 a1be
00000090: 8e84 a4be 5a12 8cbe 9ff9 6f3e 4035 f53e
000000a0: 1055 b8be afbe 47bd 344f 03be cb03 7f3e
000000b0: 2f1c 963e b6b1 30be f6fd 2b3e 470e 8f3e
000000c0: c6d7 d63e a9b7 0e3e 2eb2 bb3e dbd9 ce3e
000000d0: 48c9 c73d 4254 143d 4fb1 483d 2379 013e
000000e0: 18e8 b03e 3053 d73e 0bc4 bf3e baf9 853e
000000f0: d7f5 7abe ba86 10be b1b5 073b 3be9 ac3d
00000100: a79a 693c 463e 0dbf 5757 9abe b5e3 93be
00000110: b92d dbbe 66d8 e7be c1bf 02bf 93da 08bf
00000120: ea5d 0bbf 6bba d5be c8e6 cdbe ee62 343e
00000130: c40a 64bd 512d 11be f8db dabe 568f 91be
00000140: 5c11 03be 5433 cfbc 799e 803b aa51 103e
00000150: 024c 043a 9c2f 3c3e ef2a fc3e d00a cd3e
00000160: d9f3 c63e 814f 003e 7094 8bbe 742a 2abe
00000170: b941 26bd abc8 e13d 4044 afbd 0b97 62be
00000180: 546a 89be a4de 9cbe eb34 d8bd 8a96 cfbd
00000190: 35a9 e7b9 adf4 a7be 7f04 0abe 1d6c 06be
000001a0: 76c9 72be 91ad 30bf 83ed 0cbf 79a3 06bf
000001b0: 9dc4 06bf 985f 313d 0183 8fbe 7d19 9fbe
000001c0: 6d64 5bbe d48c 6f3e 77f9 a63e 9ed9 3cbe
000001d0: 1f68 223e f215 563e 5b76 a63e 9e03 473e
000001e0: ce97 083f 8dac 073f fee4 033f 6e0c 1f3e
000001f0: 2f68 9c3d 1e94 f23d 4f80 42be 85e2 0b3d
00000200: 8cf2 163e 96ca b1bc 1b2e 213e b96c 08be
00000210: 8c03 16be f214 2bbd d8a1 2c3e effb 20be
00000220: 85e1 033e b57f bbbc dad0 28be 2acd ae3d
00000230: ecaf 25be ba8a 30be 7ede 0d3e e3a7 39be
00000240: 332b 0fbe fa3f ee3d d135 1bbe 9a82 5d3d
00000250: c0c1 b5bd 9400 a73c 74d5 66bd 8c66 bd3e
00000260: bc81 cc3e 8b36 bd3d e572 92bd f19a cb3d
00000270: 76aa fe3e 5ad2 0e3d 1b06 a3be b3c7 f9be
00000280: 7cd4 b93e 8ae4 4a3f 8b25 963d 312b 28bf
00000290: 7cdc 2dbf e385 da3e 9906 463f 1665 52be
000002a0: d998 1bbf 065c bebe e73f 393e 6b94 0b3f
000002b0: 8e7c 553e af34 4abe 568a 7dbe 4473 fb3d
000002c0: 2ffc 03be 9b4a 01be 4475 06bc c6a1 723e
000002d0: fa4c 43be 6d93 8cbe 1eab 18be 79f6 18bd
000002e0: 6efb ad3e 7513 87be 56f7 b2be 9ac0 e9be
000002f0: 6fe0 07be 82a5 b63e 0458 72be ea04 16be
00000300: 07a0 5ebe f7b4 afbd 855a ed3e fb9a e8bd
00000310: fa1f 0abe d5b5 58be 5a1d a93d e022 023f
00000320: 4e6d a13e c2c2 cd3d a553 2e3c 1f1d 593e
00000330: 25e2 c3bd 8757 1abe 2644 3cbd 4921 353e
00000340: 4d42 6d3d e7a6 7a3e d4ce 30bd 0d11 35be
00000350: 6ea9 2bbe f417 b5bc c72e 42bd 977c 013e
00000360: ab03 913c 38ca f3bc ee46 7fbd 7f55 90be
00000370: e746 d4bd 2ff9 093d 82f4 d23d d023 17be
00000380: eebe e8bd abe6 2dbe 05f6 b93c 20c4 353e
00000390: 3dc4 093e e4fe 86bd f4fc 52be 22d9 3f3e
000003a0: ca0b 8fbd d051 9f3c 20b9 1dbd 982c e93d
000003b0: c752 11be 241b 663c eb88 dbbc facd 52bd
000003c0: f015 11bc 9872 08be 852d 62be 59e7 04be
000003d0: 0b76 b7bd 6aed cebd afab 46be 6d7a f53b
000003e0: 0823 ecbd 082e 1abe 9bd8 23be 6a2c 59bd
000003f0: a2b0 4cbd 6ce1 3ebe 31c1 fcbc 6e24 863d

bias f4 [16]
-0.28017536 -0.2421077 0.02271122 -0.090802535 -0.18416664 -0.018578112 -0.57099694 -0.15639679
-0.05854153 0.20820573 0.030189635 -0.37781712 -0.14186464 -0.62412244 -0.19878772 0.65077937
00000000: 2573 8fbe 15eb 77be e10c ba3c aef6 b9bd
00000010: 2e96 3cbe 2031 98bc db2c 12bf 7b26 20be
00000020: 3ec9 6fbd e233 553e 4150 f73c 3f71 c1be
00000030: f744 11be 7dc6 1fbf 028f 4bbe 7a99 263f

weight f4 [10, 16, 3, 3]
0.04069159 0.08222228 0.033972993 -0.09329948 -0.12126107 -0.11186514 -0.1517987 -0.040772516
0.08159002 -0.19549145 0.21193752 0.26440173 0.10477811 0.19411784 0.1632213 0.08974653
-0.00360735 0.03877983 0.0783424 -0.10006375 -0.17058797 -0.039938487 -0.21201098 -0.2605297
-0.029866165 -0.1179588 -0.069994844 -0.068811476 -0.08926206 0.07529927 0.015425314 0.07943281
-0.1426373 -0.12697376 -0.09468866 0.025493912 -0.15559344 0.24176104 0.34819987 0.0069093695
0.24539752 0.04472486 0.09978349 -0.06770518 -0.25341612 -0.040622905 0.07158325 -0.0010278047
-0.10143685 -0.106032565 -0.08266754 0.05583934 0.041876618 -0.038821634 -0.0062094065 -0.047621943
-0.12493206 -0.2577188 -0.111845374 0.19683583 -0.041742194 0.25888678 0.16666634 0.0032444864
0.142321 0.13270271 -0.044644076 0.23663008 -0.005542522 0.0008362484 0.08275684 0.017642347
0.008438803 0.02052367 0.1643837 -0.047829922 -0.043346286 0.019890282 -0.083044305 0.021733215
0.016901214 -0.040920086 -0.03411633 -0.0065534464 0.07234094 0.047305584 0.013458123 -0.05151505
0.008374735 0.036319695 -0.0166136 -0.081502534 -0.07044486 0.059126906 -0.03371007 -0.030217277
0.0010155285 0.0798896 -0.049064443 -0.21567477 -0.27492127 -0.16437624 -0.29562816 -0.21373089
-0.17885989 -0.12562051 -0.11974431 0.013005145 0.07589603 -0.08101511 0.012107157 -0.060400408
0.07789982 0.06579587 -0.00062602846 -0.056459725 0.030738087 0.07228234 -0.19664906 0.27349958
-0.35900265 0.040924266 0.43446997 -0.031594977 0.025996333 -0.20582198 0.115018845 0.104578786
-0.09982456 -0.10654309 -0.2910964 -0.26530918 -0.23944432 -0.014602272 -0.10135072 0.19139686
-0.0024081678 -0.21968816 -0.05288338 -0.183143 -0.1306113 -0.12897786 -0.06236598 -0.1989911
-0.10221122 -0.017161109 0.058717348 -0.08124936 -0.13717437 0.021682689 -0.040264297 -0.0011728458
0.034427784 -0.13335904 0.1878859 0.19341908 -0.10523456 0.25144044 0.11199293 0.07449606
0.2738252 -0.022036908 -0.024425033 -0.13446258 -0.16002032 -0.0485926 -0.11361039 -0.21314593
-0.04891421 -0.12541984 -0.16084816 -0.10604646 -0.067590296 0.045987204 -0.08318764 0.055669777
-0.082704216 0.01618261 -0.10119305 -0.10922433 -0.078543454 -0.07016603 0.10124123 -0.03414327
0.1616557 0.1543801 -0.09602948 0.057705805 0.020677507 0.009025618 -0.070626594 -0.06834724
-0.010018959 0.04790989 -0.0032845198 -0.012230834 0.012099191 -0.058794573 0.034797166 0.017886302
-0.09476359 -0.03326313 -0.08478716 -0.02539858 -0.11335074 0.00072552275 0.28988728 -0.093270674
0.2128657 0.08934733 -0.09721689 0.11141429 -0.04025482 0.08441366 0.12878765 0.05405457
-0.06669234 -0.0872333 -0.014135639 0.030298669 -0.12901768 0.07879442 -0.11173702 -0.027071115
-0.05036878 0.040962763 0.058532886 -0.10811142 -0.006024869 0.002014407 0.027245471 0.028032353
-0.004316006 -0.031251393 -0.036619097 0.072497755 0.008572669 -0.028232135 0.04775193 0.038007677
0.03565494 -0.0014416996 0.023164121 0.032580353 -0.2138139 0.08121422 -0.053195212 -0.28606138
-0.19167563 -0.12225232 -0.18687017 0.042866252 0.015472333 -0.023245502 -0.017558647 -0.0054224697
00000000: 3aac 263d 2864 a83d 4427 0b3d cc13 bfbd
00000010: b957 f8bd 8d19 e5bd 1e71 1bbe 1501 27bd
00000020: ab18 a73d e92e 48be 2606 593e aa5f 873e
00000030: e895 d63d d4c6 463e 7c23 273e 07cd b73d
00000040: 4a69 6cbb 99d7 1e3d fb71 a03d 39ee ccbd
00000050: 9dae 2ebe 8a96 23bd 6819 59be 2664 85be
00000060: e3a9 f4bc 6294 f1bd 7559 8fbd 08ed 8cbd
00000070: 07cf b6bd 8136 9a3d 75ba 7c3c abad a23d
00000080: 830f 12be 6905 02be 21ec c1bd 9cd8 d03c
00000090: e353 1fbe 3590 773e 4147 b23e fe67 e23b
000000a0: 7d49 7b3e 6a31 373d 495b cc3d 03a9 8abd
000000b0: c2bf 81be 3464 26bd 3d9a 923d 67b7 86ba
000000c0: 20be cfbd 9a27 d9bd 994d a9bd cbb7 643d
000000d0: d186 2b3d 6f03 1fbd 4778 cbbb 3a0f 43bd
000000e0: 61dc ffbd b8f3 83be 300f e5bd 558f 493e
000000f0: ddf9 2abd cf8c 843e 95aa 2a3e 73a1 543b
00000100: 99bc 113e 38e3 073e b5dc 36bd 284f 723e
00000110: 0b9e b5bb ae37 5b3a 6b7c a93d af86 903c
00000120: e842 0a3c 4121 a83c 3354 283e 4fe9 43bd
00000130: e08b 31bd f2f0 a23c 2213 aabd db09 b23c
00000140: 6a74 8a3c d29b 27bd 91bd 0bbd 4bbe d6bb
00000150: 7d27 943d 80c3 413d 767f 5c3c 7201 53bd
00000160: 2f36 093c f6c3 143d 3f19 88bc cdea a6bd
00000170: 6545 90bd 0e2f 723d 9213 0abd 398a f7bc
00000180: 7b1b 853a 299d a33d ccf7 48bd d9d9 5cbe
00000190: 7bc2 8cbe 3f52 28be 935c 97be 45dc 5abe
000001a0: 0c27 37be aaa2 00be 813c f5bd 8813 553c
000001b0: 616f 9b3d 40eb a5bd 195d 463c 6b66 77bd
000001c0: f189 9f3d fcbf 863d 0f1c 24ba 5042 67bd
000001d0: 71ce fb3c c308 943d 5f5e 49be 2308 8c3e
000001e0: 32cf b7be 34a0 273d d972 de3e bc69 01bd
000001f0: 43f6 d43c ffc2 52be 008f eb3d 672d d63d
00000200: d270 ccbd 4333 dabd 960a 95be 9bd6 87be
00000210: e430 75be 5e3e 6fbc f790 cfbd 8afd 433e
00000220: 5ad2 1dbb eff5 60be 3e9c 58bd d789 3bbe
00000230: f8be 05be c612 04be 7873 7fbd 53c4 4bbe
00000240: 1e54 d1bd 7495 8cbc 9a81 703d 1166 a6bd
00000250: 7077 0cbe e59f b13c 2dec 24bd 2dba 99ba
00000260: 2604 0d3d 468f 08be 2965 403e a70f 463e
00000270: 3885 d7bd cdbc 803e 8d5c e53d 6491 983d
00000280: d132 8c3e bf86 b4bc 0217 c8bc 8fb0 09be
00000290: 5edc 23be 0909 47bd 90ac e8bd ed42 5abe
000002a0: 445a 48bd 0f6e 00be 61b5 24be e32e d9bd
000002b0: c86c 8abd 145d 3c3d 485e aabd fe05 643d
000002c0: d460 a9bd 6591 843c 4d3e cfbd 01b1 dfbd
000002d0: 64db a0bd 35b3 8fbd 9057 cf3d d0d9 0bbd
000002e0: 1289 253e d115 1e3e 1bab c4bd ec5c 6c3d
000002f0: e063 a93c 30e0 133c ada4 90bd a3f9 8bbd
00000300: 8f26 24bc 293d 443d 1941 57bb d663 48bc
00000310: af3b 463c 94d2 70bd 7987 0e3d 4b86 923c
00000320: 6a13 c2bd eb3e 08bd e4a4 adbd af10 d0bc
00000330: 6f24 e8bd 0231 3e3a 1b6c 943e b204 bfbd
00000340: 77f9 593e bcfb b63d a619 c7bd 2d2d e43d
00000350: 3de2 24bd 12e1 ac3d e9e0 033e 5368 5d3d
00000360: fe95 88bd 5fa7 b2bd 2b99 67bc ea34 f83c
00000370: 361d 04be f85e a13d 61d6 e4bd 3ec4 ddbc
00000380: 7e4f 4ebd 92c8 273d 2ec0 6f3d 8569 ddbd
00000390: 446c c5bb 2404 043b e531 df3c 1ba4 e53c
000003a0: 486d 8dbb 7601 00bd e8fd 15bd b479 943d
000003b0: 6174 0c3c 1447 e7bc 8797 433d f0ad 1b3d
000003c0: ea0a 123d 69f7 bcba afc2 bd3c fa72 053d
000003d0: 08f2 5abe a453 a63d 39e3 59bd a376 92be
000003e0: 9e46 44be 6d5f fabd e55a 3fbe 8694 2f3d
000003f0: ab7f 7d3c 5a6d bebc 27d7 8fbc f9ae b1bb

bias f4 [10]
-0.13208893 0.02945591 -0.2131924 -0.12786463 -0.10113303 -0.34500057 -0.15533568 0.02590106
-0.22735482 0.011927202
00000000: 5242 07be 854d f13c 1c4f 5abe f2ee 02be
00000010: d61e cfbd eaa3 b0be 5110 1fbe 762e d43c
00000020: b4cf 68be 506a 433c

weight f4 [32, 250]
-0.059345786 -0.0096744 -0.04003297 -0.12728208 -0.077756576 -0.20533003 -0.10117351 0.23811164
0.18699968 0.03951598 -0.02447923 0.020998681 0.025065342 0.17431481 0.12099136 -0.010955964
-0.26938754 0.024154156 0.047977053 -0.038784884 -0.07486009 -0.1460352 -0.029703675 -0.10237369
-0.029350245 -0.06283693 -0.0656726 -0.13686909 -0.04762984 0.02488704 -0.07426838 -0.048139017
0.08947589 -0.017263008 -0.014371384 0.00083026866 0.008022255 -0.045236185 0.011154614 0.058102056
0.021862894 -0.07837326 -0.0994292 0.046888705 -0.011462524 0.024841318 -0.12356141 0.011799305
-0.049820706 -0.033662904 -0.14065416 -0.089712344 0.30006468 0.37016177 0.24999164 -0.24166164
-0.4006724 -0.3549819 0.09787209 0.044654693 -0.061904956 -0.23884335 -0.18951681 -0.25515515
-0.17591754 0.007508817 -0.122124694 0.12561196 0.14643857 0.032144047 0.12874252 0.18934967
0.14910102 0.06755018 0.15554185 -0.0013574583 -0.13287745 -0.10356196 -0.2423684 -0.0548846
0.042179324 0.2907076 0.31932536 -0.21064301 -0.12833604 0.2442178 0.36276704 0.1620798
0.1634457 0.14339204 -0.13481702 -0.11520994 0.08108432 0.100774035 0.1700407 -0.03296653
0.19313125 0.16662699 0.095245354 0.052091654 -0.0016057161 0.024248336 -0.017270464 -0.09203998
-0.07191489 0.03254742 0.19381925 -0.011306493 0.16843884 0.057076 -0.057980616 -0.11969247
0.003015348 0.07712941 0.1589341 -0.103673235 -0.05196715 -0.17186013 -0.0766206 0.03657177
0.05872475 0.16436832 0.14116035 -0.07429824 0.08351175 -0.06530936 -0.055677027 -0.04624566
0.053669658 0.028639 -0.68563193 -0.62706566 0.082679756 0.36083224 0.20460144 -0.421424
-0.21608852 -0.01438947 -0.00915987 0.11934695 0.07629308 -0.20341603 0.015937457 -0.025282076
0.03229466 -0.001053478 -0.3063043 -0.10422278 -0.08443178 -0.0062921597 -0.01971042 0.06682796
0.15717407 0.46495566 0.30211803 -0.1783238 -0.39866343 -0.107591406 0.36091357 0.2874001
-0.1758534 -0.21896589 -0.36730748 -0.29847178 -0.05137354 0.02471651 -0.14589636 -0.09198852
-0.08965048 -0.1551638 0.14348888 -0.024193015 -0.0646639 0.0470389 -0.041832946 -0.12009344
-0.05395394 -0.084586956 0.0043866467 0.0064427913 -0.3074267 -0.165676 -0.076787464 0.032191988
0.0534968 0.016751934 -0.074241646 -0.08215884 -0.10883364 0.091999866 0.06661283 -0.031335995
-0.033721074 -0.011302496 -0.003709463 -0.05440608 -0.043214183 -0.12314481 -0.13649502 -0.028052475
0.12137457 0.43916988 0.29443777 -0.1262859 -0.27324432 -0.038053475 -0.026593441 -0.19259064
-0.026498938 0.020485807 -0.09764428 0.16481048 0.043954805 -0.5802456 -0.09899059 0.1433045
-0.11069571 -0.11033467 0.12083195 0.27755448 0.34095395 0.38921878 0.08034194 0.18430074
0.42764118 0.016029693 -0.024505517 -0.020637473 0.046002276 -0.016716007 0.047788274 0.023454921
0.027737701 0.0030099757 0.03166146 0.02316402 0.037095062 0.041034017 -0.053512935 -0.04187023
-0.062065765 -0.0076432093 0.05457459 0.015893027 0.054236528 -0.049443576 -0.012507522 0.0073523307
-0.016032046 -0.022689525 0.08122406 0.15953146 -0.03658508 -0.11613829 -0.08082963 0.08941488
00000000: 9114 73bd 6081 1ebc 9df9 23bd 3c56 02be
00000010: d73e 9fbd 0942 52be 0f34 cfbd 8ad3 733e
00000020: d87c 3f3e 82db 213d ab88 c8bc 6d05 ac3c
00000030: d555 cd3c 957f 323e 51ca f73d a580 33bc
00000040: 2aed 89be f0de c53c 9683 443d e6dc 1ebd
00000050: 3f50 99bd 408a 15be 1f55 f3bc 4ca9 d1bd
00000060: ed6f f0bc a6b0 80bd 5b7f 86bd 6927 0cbe
00000070: 8217 43bd e8df cb3c 051a 98bd 6b2d 45bd
00000080: 233f b73d 276b 8dbc f475 6bbc 63a6 593a
00000090: c76f 033c 9449 39bd d8c1 363c 6cfc 6d3d
000000a0: d019 b33c 2982 a0bd 89a1 cbbd 5f0e 403d
000000b0: 4fcd 3bbc 0580 cb3c c40d fdbd df51 413c
000000c0: cc10 4cbd 1de2 09bd a507 10be 1bbb b7bd
000000d0: 14a2 993e d885 bd3e cffd 7f3e 2676 77be
000000e0: ef24 cdbe 30c0 b5be 2a71 c83d d7e7 363d
000000f0: 0d90 7dbd 5a93 74be b210 42be b2a3 82be
00000100: ba23 34be 860c f63b 831c fabd 6ca0 003e
00000110: fef3 153e 7aa9 033d 14d5 033e e1e4 413e
00000120: f0ad 183e c057 8a3d 5d46 1f3e beec b1ba
00000130: 0711 08be 4b18 d4bd 6c2f 78be adce 60bd
00000140: 3ac4 2c3d a0d7 943e 9d7e a33e cdb2 57be
00000150: 866a 03be 3b14 7a3e 9abc b93e 3ff8 253e
00000160: 4f5e 273e 5dd5 123e 790d 0abe 30f3 ebbd
00000170: 890f a63d 9e62 ce3d 261f 2e3e ea07 07bd
00000180: 33c4 453e 44a0 2a3e ff0f c33d 0f5e 553d
00000190: e476 d2ba 72a4 c63c ca7a 8dbc 757f bcbd
000001a0: 1d48 93bd 7250 053d 8e78 463e de3e 39bc
000001b0: 3b7b 2c3e 86c8 693d 157d 6dbd 5321 f5bd
000001c0: 259d 453b 06f6 9d3d 9fbf 223e a252 d4bd
000001d0: 82db 54bd 1afc 2fbe 43eb 9cbd 48cc 153d
000001e0: 5d89 703d 2b50 283e 578c 103e ad29 98bd
000001f0: 3508 ab3d eac0 85bd 980d 64bd 176c 3dbd
00000200: b7d4 5b3d 569c ea3c 9385 2fbf 6087 20bf
00000210: 0154 a93d 01bf b83e 0a83 513e e3c4 d7be
00000220: 4f46 5dbe d0c1 6bbc 4813 16bc 2c6c f43d
00000230: 8c3f 9c3d 4b4c 50be 458f 823c 5b1c cfbc
00000240: 6847 043d db14 8aba ebd3 9cbe c172 d5bd
00000250: 92ea acbd 762e cebb bf77 a1bc 19dd 883d
00000260: 3df2 203e ab0e ee3e 37af 9a3e 849a 36be
00000270: 9d1d ccbe e258 dcbd aac9 b83e 1b26 933e
00000280: ea12 34be 9838 60be ba0f bcbe 4bd1 98be
00000290: 106d 52bd 477a ca3c db65 15be 7a64 bcbd
000002a0: ac9a b7bd 42e3 1ebe c0ee 123e 6e30 c6bc
000002b0: 826e 84bd ddab 403d 0659 2bbd 8df3 f5bd
000002c0: cefe 5cbd ed3b adbd dcbd 8f3b 0d1e d33b
000002d0: 0867 9dbe f8a6 29be bf42 9dbd bfdb 033d
000002e0: 761f 5b3d 5a3b 893c 010c 98bd e542 a8bd
000002f0: 2ce4 debd 6d6a bc3d 4f6c 883d 2c5a 00bd
00000300: 1c1f 0abd 1b2e 39bc 761a 73bb e9d8 5ebd
00000310: 5b01 31bd 5933 fcbd 5ac5 0bbe 4ece e5bc
00000320: 3b93 f83d e0da e03e 8cc0 963e 1751 01be
00000330: aee6 8bbe f6dd 1bbd 7dda d9bc 7b36 45be
00000340: 4d14 d9bc dad1 a73c b9f9 c7bd 14c4 283e
00000350: f409 343d fa8a 14bf 94bb cabd 6abe 123e
00000360: 6fb4 e2bd 25f7 e1bd be76 f73d 9f1b 8e3e
00000370: 8491 ae3e af47 c73e 518a a43d 55b9 3c3e
00000380: c9f3 da3e b450 833c cbbf c8bc eb0f a9bc
00000390: e26c 3c3d 02f0 88bc a3bd 433d 8924 c03c
000003a0: 2d3a e33c 0343 453b 72af 013d 79c2 bd3c
000003b0: fef0 173d 4913 283d 6130 5bbd 1e80 2bbd
000003c0: ac38 7ebd e373 fabb 9b89 5f3d 1832 823c
000003d0: 1f27 5e3d 5985 4abd 59ec 4cbc d2eb f03b
000003e0: a355 83bc 62df b9bc cd58 a63d 375c 233e
000003f0: 3dda 15bd e9d9 edbd 018a a5bd 261f b73d

bias f4 [32]
0.07325153 0.026622163 -0.060396943 -0.0022162118 0.05129111 -0.048019275 0.057547577 -0.056139063
-0.011477671 -0.027726397 -0.0024438777 0.044249002 0.029696232 0.020638857 -0.01524426 -0.019492991
-0.03193813 -0.059742402 -0.057681818 0.008407391 -0.06794121 -0.048836827 -0.062395703 0.043966558
-0.035741556 0.051941052 -0.016230658 0.04224142 -0.03148328 -0.07120986 -0.0064945994 0.03642392
00000000: e604 963d b916 da3c c962 77bd dd3d 11bb
00000010: a116 523d dcaf 44bd 02b7 6b3d 13f2 65bd
00000020: d70c 3cbc 7822 e3bc 7729 20bb 713e 353d
00000030: 8345 f33c d212 a93c 10c3 79bc c4af 9fbc
00000040: 8ed1 02bd 73b4 74bd c543 6cbd 27bf 093c
00000050: c324 8bbd 2009 48bd a392 7fbd 4716 343d
00000060: bd65 12bd 24c0 543d 28f6 84bc 5705 2d3d
00000070: 9df4 00bd 7ad6 91bd a6d0 d4bb 4031 153d

weight f4 [16, 32]
-0.058982894 -0.06737912 -0.054255076 0.3693179 -0.08925469 -0.12189935 -0.0034854405 0.044050742
-0.050081704 0.1165185 -0.20556916 0.31397206 0.00088799204 0.08737772 0.4020017 0.1098206
0.0462149 -0.19582821 -0.06774091 -0.12236302 -0.3434757 0.15661569 0.22145721 -0.20998685
-0.13107465 0.31678376 -0.08491015 -0.10585477 0.11486596 0.17808057 0.21877488 0.17223379
-0.08243407 -0.02010072 0.04193252 -0.030998139 -0.5232016 0.015620804 0.004800833 -0.06318172
0.45689407 0.029264139 -0.11760221 -0.020378128 0.05170322 0.12043592 0.41703153 -0.0067903795
0.60130036 -0.6666785 0.1827619 -0.7403218 0.6668473 -0.025567511 0.7920547 -0.38283673
-0.11967746 -0.24553105 0.08767662 -0.06784895 0.16023007 0.079680234 -0.22020462 -0.06362718
-0.12796837 -0.16714674 -0.069390565 0.0025264951 -0.15209112 0.02246834 0.19539402 0.013217122
0.18936259 -0.10809229 -0.14809602 0.14761443 0.17033382 -0.11581356 -0.020954382 0.02071931
-0.15680437 -0.13528746 -0.007094072 -0.057123326 -0.067186914 -0.04544872 0.37238625 -0.0576341
0.0045641433 -0.101940505 -0.14040275 0.18816973 -0.13815774 -0.0736431 -0.013415183 -0.10723003
-0.568654 0.001342952 -0.031011635 -0.31720176 0.38447845 0.067904584 0.20246169 0.29759023
0.009647659 0.15520927 -0.024375051 -0.07057987 0.064500555 -0.117610715 -0.021938443 -0.1343064
-0.014721905 0.45539036 -0.37494242 0.71983653 -0.102523215 -0.12706289 -0.24184267 0.24889834
-0.120775774 0.18580677 -0.021058705 -0.040005557 0.028918352 0.11397535 0.2780234 0.30755723
-0.11570726 -0.4694781 0.42210677 0.07573655 -0.4266077 0.35783726 0.17804293 -0.035318978
-0.05238744 -0.10835904 -0.034398053 0.04372464 -0.011252462 -0.20420751 -0.1278056 0.07369598
0.023746384 0.11461705 -0.036673263 0.84323025 -0.053741317 -0.13369924 -0.46855092 -0.11617912
0.03572945 0.044231173 -0.11551153 -0.014365036 0.02393162 0.5320167 -0.019173548 -0.2573681
-0.0709837 0.5991117 -0.06041275 -0.40708864 0.16197737 -0.50398004 -0.44711927 0.11624188
0.36720237 -0.34282467 0.37017804 -0.2414297 0.59358364 0.22883666 -0.7714288 0.11388783
0.32463342 0.4141475 -0.46803215 0.80880004 0.5815743 -0.05158429 -0.013037844 0.33141187
0.070338696 -0.6198893 -0.3997183 -0.072084166 -0.1518168 0.2725007 -0.0263706 0.071009256
-0.13958657 -0.13177069 -0.07942832 0.012441901 0.032460984 0.11826564 -0.13721158 0.1594707
-0.031463392 -0.14190489 -0.040834595 0.03172326 -0.05684275 0.07049546 0.10973175 0.039121386
0.018956786 -0.15267715 0.08823126 -0.009289656 -0.11291528 0.10883229 0.0010698503 -0.09827801
-0.0543124 0.08669556 -0.08687827 -0.14583099 -0.06447231 -0.07777842 0.0017388233 -0.04042866
0.22122988 0.0444187 -0.060271792 0.081831865 -0.62784123 -0.35849175 -0.1538181 -0.22442015
-0.30542126 -0.14609264 0.2548382 0.5289964 0.8947465 0.04532132 0.7660874 0.020480266
0.5336771 -0.20183378 -0.8049902 0.28934845 0.12905852 0.13604711 0.11380657 0.37354583
-0.15864606 0.4289478 -0.052287474 -0.7491286 -0.17778443 -0.23487559 -0.1013407 0.7567955
00000000: 0c98 71bd 10fe 89bd 923a 5ebd 3c17 bd3e
00000010: 2acb b6bd 5ea6 f9bd fd6b 64bb 8d6e 343d
00000020: 7922 4dbd 40a1 ee3d b980 52be f2c0 a03e
00000030: 23c8 683a 17f3 b23d 2bd3 cd3e 9fe9 e03d
00000040: d64b 3d3d 3187 48be bfbb 8abd 7799 fabd
00000050: 0cdc afbe dd5f 203e aec5 623e cb06 57be
00000060: 6f38 06be 7b31 a23e 5fe5 adbd 63ca d8bd
00000070: d83e eb3d c15a 363e 8606 603e 0e5e 303e
00000080: 32d3 a8bd 44aa a4bc 6fc1 2b3d cfef fdbc
00000090: 8af0 05bf 67ee 7f3c 4e50 9d3b 6b65 81bd
000000a0: 05ee e93e 59bb ef3c 6dd9 f0bd 08f0 a6bc
000000b0: c1c6 533d 1ca7 f63d 2885 d53e d581 debb
000000c0: d2ee 193f 71ab 2abf ef25 3b3e bb85 3dbf
000000d0: 81b6 2a3f f572 d1bc 19c4 4a3f 2d03 c4be
000000e0: 7519 f5bd 7e6c 7bbe cd8f b33d 64f4 8abd
000000f0: 5a13 243e 642f a33d 527d 61be f84e 82bd
00000100: 240a 03be 8428 2bbe a41c 8ebd 8e93 253b
00000110: c6bd 1bbe 860f b83c 5f15 483e a18c 583c
00000120: 44e8 413e 7e5f ddbd 7ca6 17be 3d28 173e
00000130: fd6b 2e3e a92f edbd 86a8 abbc 8bbb a93c
00000140: 5391 20be cc88 0abe 6475 e8bb 26fa 69bd
00000150: 4b99 89bd 7028 3abd 69a9 be3e bc11 6cbd
00000160: cf8e 953b 2fc6 d0bd bdc5 0fbe 91af 403e
00000170: 3979 0dbe 32d2 96bd 5bcb 5bbc 6b9b dbbd
00000180: 4f93 11bf fe05 b03a 1d0c febc 4568 a2be
00000190: 5cda c43e 8f11 8b3d 1e52 4f3e bf5d 983e
000001a0: 3711 1e3c 2eef 1e3e 30ae c7bc 2e8c 90bd
000001b0: de18 843d e3dd f0bd 40b8 b3bc 9e87 09be
000001c0: 2534 71bc ed28 e93e 74f8 bfbe 3547 383f
000001d0: b1f7 d1bd c61c 02be 9ba5 77be 35df 7e3e
000001e0: 4a59 f7bd 2144 3e3e 4e83 acbc dedc 23bd
000001f0: 2ee6 ec3c e96b e93d 1559 8e3e 2478 9d3e
00000200: eef7 ecbd 6f5f f0be 611e d83e c41b 9b3d
00000210: 536c dabe 7236 b73e e350 363e a2aa 10bd
00000220: 3694 56bd 58eb ddbd f9e4 0cbd 9c18 333d
00000230: 3f5c 38bc c61b 51be 79df 02be ebed 963d
00000240: c787 c23c 58bc ea3d b436 16bd f0dd 573f
00000250: db1f 5cbd 74e8 08be e8e5 efbe 52ef edbd
00000260: 0b59 123d bf2b 353d 4f91 ecbd 545b 6bbc
00000270: 3f0c c43c 3f32 083f d811 9dbc c0c5 83be
00000280: e75f 91bd 625f 193f 5c73 77bd ec6d d0be
00000290: 65dd 253e d604 01bf d1ec e4be 3910 ee3d
000002a0: f301 bc3e b786 afbe fa87 bd3e 5939 77be
000002b0: 19f5 173f 2854 6a3e 5c7c 45bf 063e e93d
000002c0: 5a36 a63e 240b d43e e9a1 efbe 850d 4f3f
000002d0: 0ee2 143f 0c4a 53bd ae9c 55bc d1ae a93e
000002e0: bc0d 903d 11b1 1ebf e1a7 ccbe dda0 93bd
000002f0: dd75 1bbe 3685 8b3e 2807 d8bc 4d6d 913d
00000300: c8ef 0ebe e5ee 06be 51ab a2bd 1dd9 4b3c
00000310: cff5 043d 4235 f23d 3181 0cbe 4a4c 233e
00000320: c2df 00bd 844f 11be 2d42 27bd 40f0 013d
00000330: f2d3 68bd ec5f 903d 0abb e03d bf3d 203d
00000340: 434b 9b3c 6657 1cbe 97b2 b43d a433 18bc
00000350: 2040 e7bd 77e3 de3d 383a 8c3a fb45 c9bd
00000360: ae76 5ebd 718d b13d 3ced b1bd b854 15be
00000370: 0f0a 84bd 4b4a 9fbd 3ae9 e33a 8698 25bd
00000380: 168a 623e 62f0 353d 8edf 76bd 7797 a73d
00000390: 34ba 20bf 3b8c b7be 7e82 1dbe 65ce 65be
000003a0: 2d60 9cbe 4f99 15be 277a 823e 4f6c 073f
000003b0: 1b0e 653f d9a2 393d 4e1e 443f 3bc6 a73c
000003c0: 109f 083f 84ad 4ebe d613 4ebf 7b25 943e
000003d0: eb27 043e ef4f 0b3e 6b13 e93d 6641 bf3e
000003e0: 1d74 22be 0c9f db3e 642b 56bd e4c6 3fbf
000003f0: 1f0d 36be 3a83 70be b78b cfbd 5abd 413f

bias f4 [16]
-0.18337089 -0.11932821 -0.022273533 -0.04200386 -0.13045853 0.2949217 -0.059475735 0.085733555
0.13604192 0.28447112 -0.112125844 0.16055109 0.11590529 -0.17866543 0.30691978 -0.09460482
00000000: 94c5 3bbe 5962 f4bd fc76 b6bc 3d0c 2cbd
00000010: ec96 05be faff 963e d49c 73bd 1395 af3d
00000020: 934e 0b3e 33a6 913e 3ca2 e5bd 8167 243e
00000030: c15f ed3d 12f4 36be 9724 9d3e 2cc0 c1bd

weight f4 [10, 16]
-0.24332939 -0.47781283 0.19746536 -0.055404574 -0.046159066 -0.7718509 -0.0056568314 -0.48134962
0.7073573 -0.29918337 -0.11903371 1.0724462 0.5754432 0.69157076 -0.7488374 0.043062154
-0.052485522 -0.33616275 -0.13141508 0.40021095 0.3226451 -0.3992614 0.038230073 -0.029156651
-0.20312077 0.36845604 -0.108977534 -1.0411001 -0.4737147 -0.27398258 1.2830375 0.0474475
0.18249136 -0.123608954 -0.2422144 -0.4695312 -0.11063206 -0.5085222 0.21634585 -0.96367335
-0.28118548 0.107543536 0.037208114 0.70849633 -0.36008835 0.92006993 0.6055801 0.053247776
-0.017662132 -0.21817006 0.17543317 -0.602271 -0.289791 0.48947155 -0.06585668 0.6451793
-0.41954118 -0.7140918 0.12884901 0.40606794 -0.768718 -0.3712421 0.79658693 0.096534394
-0.024688784 0.4041997 0.48201686 -0.21953067 -0.21616808 -0.09388402 0.14753272 -0.20673695
0.8808558 0.5804892 0.22003701 -0.57505214 -0.07755704 0.79129803 -0.17769007 -0.019013816
-0.2038614 -0.6629758 0.123962335 0.5636706 0.23178281 0.8647864 -0.10033099 0.5285593
0.111029774 -1.1398292 -0.0638457 -0.015559766 0.72548133 -0.7338955 -0.89000016 -0.20634212
-0.20616485 0.07290914 0.051108055 0.28524077 1.09881 0.46809164 0.029303243 -0.6534879
1.0744467 -0.8501505 -0.24058248 -1.012447 -0.16956154 0.42552277 -0.3590587 0.0967729
0.57812387 0.34140426 -0.037157677 -0.031133827 0.08475538 -1.4216595 -0.078475624 1.0409973
-0.17918703 0.4353151 -0.051582206 0.7227882 -0.16800721 -0.09457735 -0.31913024 -0.18370019
0.09223292 -0.6697707 -0.06607412 0.6349654 -0.399385 1.1170725 0.1141916 -0.60067385
-0.28644964 0.7299146 0.0734786 0.16280277 -0.429832 -0.087360755 -0.37679935 0.24297376
-0.37394243 1.1869347 0.09255275 -0.32934806 -0.22481692 0.17226414 -0.26250526 0.16090836
-0.49936014 0.3180421 0.23451827 -0.4709753 0.758655 -0.24905953 -0.66674554 0.19277051
00000000: 572b 79be e2a3 f4be 5c34 4a3e e8ef 62bd
00000010: 4a11 3dbd 0598 45bf f15c b9bb 7573 f6be
00000020: 5e15 353f 902e 99be f2c7 f3bd eb45 893f
00000030: 3f50 133f c80a 313f cfb3 3fbf f161 303d
00000040: 0ffb 56bd 861d acbe ad91 06be 73e8 cc3e
00000050: bd31 a53e fd6b ccbe 2397 1c3d eed9 eebc
00000060: e4fe 4fbe 45a6 bc3e 9d2f dfbd c542 85bf
00000070: bc8a f2be 7247 8cbe 933a a43f 4f58 423d
00000080: 04df 3a3e b126 fdbd 0d07 78be 6566 f0be
00000090: 1093 e2bd 832e 02bf c489 5d3e 4cb3 76bf
000000a0: 8bf7 8fbe c93f dc3d 8967 183d 0460 353f
000000b0: 805d b8be b489 6b3f 4c07 1b3f 571a 5a3d
000000c0: 2db0 90bc f967 5fbe c1a4 333e 6f2e 1abf
000000d0: 7c5f 94be 049c fa3e dedf 86bd 782a 253f
000000e0: 1ace d6be b8ce 36bf fff0 033e 23e8 cf3e
000000f0: b4ca 44bf 7213 bebe 1fed 4b3f d3b3 c53d
00000100: 2240 cabc 43f3 ce3e eaca f63e a6cc 60be
00000110: 2a5b 5dbe 4446 c0bd d112 173e dab2 53be
00000120: c47f 613f f19a 143f 6251 613e 9e36 13bf
00000130: 3ad6 9ebd 8292 4a3f 63f4 35be ddc2 9bbc
00000140: 0bc1 50be c8b8 29bf f7df fd3d b74c 103f
00000150: 7958 6d3e a462 5d3f 567a cdbd aa4f 073f
00000160: 9463 e33d ece5 91bf 89c1 82bd 64ee 7ebc
00000170: 25b9 393f 93e0 3bbf 0dd7 63bf 594b 53be
00000180: e11c 53be 6351 953d ae56 513d 140b 923e
00000190: cea5 8c3f b5a9 ef3e 5b0d f03c fc4a 27bf
000001a0: 7887 893f 77a3 59bf 415b 76be dd97 81bf
000001b0: 8aa1 2dbe 1fde d93e 8bd6 b7be df30 c63d
000001c0: edff 133f 8acc ae3e a632 18bd 5e0c ffbc
000001d0: 3b94 ad3d f0f8 b5bf d4b7 a0bd 663f 853f
000001e0: ce7c 37be 9fe1 de3e dd47 53bd a608 393f
000001f0: 150a 2cbe c5b1 c1bd 0a65 a3be e71b 3cbe
00000200: 9de4 bc3d 1876 2bbf de51 87bd 188d 223f
00000210: 317c ccbe 3bfc 8e3f 49dd e93d c3c5 19bf
00000220: 87a9 92be afdb 3a3f f37b 963d c5b5 263e
00000230: f112 dcbe 32ea b2bd d8eb c0be 1dce 783e
00000240: 6275 bfbe 7aed 973f 4c8c bd3d 4fa0 a8be
00000250: 6836 66be 0366 303e 1767 86be 29c5 243e
00000260: 22ac ffbe 6ad6 a23e 8f25 703e ad23 f1be
00000270: 3737 423f 7609 7fbe d6af 2abf a265 453e

bias f4 [10]
-0.003327739 0.16961509 -0.20230128 -0.08077754 -0.05177782 -0.13364658 -0.074672684 -0.33740726
0.20886537 0.13720685
00000000: 3216 5abb 94af 2d3e 1128 4fbe b26e a5bd
00000010: fb14 54bd a6da 08be feed 98bd a5c0 acbe
00000020: cee0 553e f47f 0c3e
